…
    "title": "Fully-Connected layers decomposition",
    "section": "2. Train the model",
    "text": "2. Train the model\n\nlearn = Learner(dls, vgg16_bn(num_classes=2), metrics=accuracy)\nlearn.fit_one_cycle(3)\n\n\n\n\nepoch\ntrain_loss\nvalid_loss\naccuracy\ntime\n\n\n\n\n0\n0.886644\n0.652151\n0.685386\n00:22\n\n\n1\n0.692583\n0.627857\n0.685386\n00:21\n\n\n2\n0.646516\n0.622866\n0.685386\n00:22\n\n\n\n\n\n\nDecompose !\n\n\nfc = FC_Decomposer()\nnew_model = fc.decompose(learn.model)\n\nThe fc layers have been factorized and replace by smaller ones.\n\nnew_model\n\nVGG(\n  (features): Sequential(\n    (0): Conv2d(3, 64, kernel_size=(3, 3), stride=(1, 1), padding=(1, 1))\n    (1): BatchNorm2d(64, eps=1e-05, momentum=0.1, affine=True, track_running_stats=True)\n    (2): ReLU(inplace=True)\n    (3): Conv2d(64, 64, kernel_size=(3, 3), stride=(1, 1), padding=(1, 1))\n    (4): BatchNorm2d(64, eps=1e-05, momentum=0.1, affine=True, track_running_stats=True)\n    (5): ReLU(inplace=True)\n    (6): MaxPool2d(kernel_size=2, stride=2, padding=0, dilation=1, ceil_mode=False)\n    (7): Conv2d(64, 128, kernel_size=(3, 3), stride=(1, 1), padding=(1, 1))\n    (8): BatchNorm2d(128, eps=1e-05, momentum=0.1, affine=True, track_running_stats=True)\n    (9): ReLU(inplace=True)\n    (10): Conv2d(128, 128, kernel_size=(3, 3), stride=(1, 1), padding=(1, 1))\n    (11): BatchNorm2d(128, eps=1e-05, momentum=0.1, affine=True, track_running_stats=True)\n    (12): ReLU(inplace=True)\n    (13): MaxPool2d(kernel_size=2, stride=2, padding=0, dilation=1, ceil_mode=False)\n    (14): Conv2d(128, 256, kernel_size=(3, 3), stride=(1, 1), padding=(1, 1))\n    (15): BatchNorm2d(256, eps=1e-05, momentum=0.1, affine=True, track_running_stats=True)\n    (16): ReLU(inplace=True)\n    (17): Conv2d(256, 256, kernel_size=(3, 3), stride=(1, 1), padding=(1, 1))\n    (18): BatchNorm2d(256, eps=1e-05, momentum=0.1, affine=True, track_running_stats=True)\n    (19): ReLU(inplace=True)\n    (20): Conv2d(256, 256, kernel_size=(3, 3), stride=(1, 1), padding=(1, 1))\n    (21): BatchNorm2d(256, eps=1e-05, momentum=0.1, affine=True, track_running_stats=True)\n    (22): ReLU(inplace=True)\n    (23): MaxPool2d(kernel_size=2, stride=2, padding=0, dilation=1, ceil_mode=False)\n    (24): Conv2d(256, 512, kernel_size=(3, 3), stride=(1, 1), padding=(1, 1))\n    (25): BatchNorm2d(512, eps=1e-05, momentum=0.1, affine=True, track_running_stats=True)\n    (26): ReLU(inplace=True)\n    (27): Conv2d(512, 512, kernel_size=(3, 3), stride=(1, 1), padding=(1, 1))\n    (28): BatchNorm2d(512, eps=1e-05, momentum=0.1, affine=True, track_running_stats=True)\n    (29): ReLU(inplace=True)\n    (30): Conv2d(512, 512, kernel_size=(3, 3), stride=(1, 1), padding=(1, 1))\n    (31): BatchNorm2d(512, eps=1e-05, momentum=0.1, affine=True, track_running_stats=True)\n    (32): ReLU(inplace=True)\n    (33): MaxPool2d(kernel_size=2, stride=2, padding=0, dilation=1, ceil_mode=False)\n    (34): Conv2d(512, 512, kernel_size=(3, 3), stride=(1, 1), padding=(1, 1))\n    (35): BatchNorm2d(512, eps=1e-05, momentum=0.1, affine=True, track_running_stats=True)\n    (36): ReLU(inplace=True)\n    (37): Conv2d(512, 512, kernel_size=(3, 3), stride=(1, 1), padding=(1, 1))\n    (38): BatchNorm2d(512, eps=1e-05, momentum=0.1, affine=True, track_running_stats=True)\n    (39): ReLU(inplace=True)\n    (40): Conv2d(512, 512, kernel_size=(3, 3), stride=(1, 1), padding=(1, 1))\n    (41): BatchNorm2d(512, eps=1e-05, momentum=0.1, affine=True, track_running_stats=True)\n    (42): ReLU(inplace=True)\n    (43): MaxPool2d(kernel_size=2, stride=2, padding=0, dilation=1, ceil_mode=False)\n  )\n  (avgpool): AdaptiveAvgPool2d(output_size=(7, 7))\n  (classifier): Sequential(\n    (0): Sequential(\n      (0): Linear(in_features=25088, out_features=2048, bias=False)\n      (1): Linear(in_features=2048, out_features=4096, bias=True)\n    )\n    (1): ReLU(inplace=True)\n    (2): Dropout(p=0.5, inplace=False)\n    (3): Sequential(\n      (0): Linear(in_features=4096, out_features=2048, bias=False)\n      (1): Linear(in_features=2048, out_features=4096, bias=True)\n    )\n    (4): ReLU(inplace=True)\n    (5): Dropout(p=0.5, inplace=False)\n    (6): Sequential(\n      (0): Linear(in_features=4096, out_features=1, bias=False)\n      (1): Linear(in_features=1, out_features=2, bias=True)\n    )\n  )\n)\n\n\nWe can see compare the amount of parameters before/after:\n\ncount_parameters(learn.model)\n\n134277186\n\n\n\ncount_parameters(new_model)\n\n91281476\n\n\nThis represents a decrease of ~40M parameters !\nNow this is an approximation, so it isn’t really lossless and we should expect to see a performance drop, which will be bigger as we keep fewer singular values. Here we have:\n\nnew_learn = Learner(dls, new_model, metrics=accuracy)\nnew_learn.validate()\n\n\n\n\n(#2) [0.6868855357170105,0.6853856444358826]",
…
4_p16_384',\n 'xcit_nano_12_p8_224',\n 'xcit_nano_12_p8_384',\n 'xcit_nano_12_p16_224',\n 'xcit_nano_12_p16_384',\n 'xcit_small_12_p8_224',\n 'xcit_small_12_p8_384',\n 'xcit_small_12_p16_224',\n 'xcit_small_12_p16_384',\n 'xcit_small_24_p8_224',\n 'xcit_small_24_p8_384',\n 'xcit_small_24_p16_224',\n 'xcit_small_24_p16_384',\n 'xcit_tiny_12_p8_224',\n 'xcit_tiny_12_p8_384',\n 'xcit_tiny_12_p16_224',\n 'xcit_tiny_12_p16_384',\n 'xcit_tiny_24_p8_224',\n 'xcit_tiny_24_p8_384',\n 'xcit_tiny_24_p16_224',\n 'xcit_tiny_24_p16_384']\n\n\n\nm = timm.create_model('seresnet18')\n\n\nm\n\nResNet(\n  (conv1): Conv2d(3, 64, kernel_size=(7, 7), stride=(2, 2), padding=(3, 3), bias=False)\n  (bn1): BatchNorm2d(64, eps=1e-05, momentum=0.1, affine=True, track_running_stats=True)\n  (act1): ReLU(inplace=True)\n  (maxpool): MaxPool2d(kernel_size=3, stride=2, padding=1, dilation=1, ceil_mode=False)\n  (layer1): Sequential(\n    (0): BasicBlock(\n      (conv1): Conv2d(64, 64, kernel_size=(3, 3), stride=(1, 1), padding=(1, 1), bias=False)\n      (bn1): BatchNorm2d(64, eps=1e-05, momentum=0.1, affine=True, track_running_stats=True)\n      (drop_block): Identity()\n      (act1): ReLU(inplace=True)\n      (aa): Identity()\n      (conv2): Conv2d(64, 64, kernel_size=(3, 3), stride=(1, 1), padding=(1, 1), bias=False)\n      (bn2): BatchNorm2d(64, eps=1e-05, momentum=0.1, affine=True, track_running_stats=True)\n      (se): SEModule(\n        (fc1): Conv2d(64, 8, kernel_size=(1, 1), stride=(1, 1))\n        (bn): Identity()\n        (act): ReLU(inplace=True)\n        (fc2): Conv2d(8, 64, kernel_size=(1, 1), stride=(1, 1))\n        (gate): Sigmoid()\n      )\n      (act2): ReLU(inplace=True)\n    )\n    (1): BasicBlock(\n      (conv1): Conv2d(64, 64, kernel_size=(3, 3), stride=(1, 1), padding=(1, 1), bias=False)\n      (bn1): BatchNorm2d(64, eps=1e-05, momentum=0.1, affine=True, track_running_stats=True)\n      (drop_block): Identity()\n      (act1): ReLU(inplace=True)\n      (aa): Identity()\n      (conv2): Conv2d(64, 64, kernel_size=(3, 3), stride=(1, 1), padding=(1, 1), bias=False)\n      (bn2): BatchNorm2d(64, eps=1e-05, momentum=0.1, affine=True, track_running_stats=True)\n      (se): SEModule(\n        (fc1): Conv2d(64, 8, kernel_size=(1, 1), stride=(1, 1))\n        (bn): Identity()\n        (act): ReLU(inplace=True)\n        (fc2): Conv2d(8, 64, kernel_size=(1, 1), stride=(1, 1))\n        (gate): Sigmoid()\n      )\n      (act2): ReLU(inplace=True)\n    )\n  )\n  (layer2): Sequential(\n    (0): BasicBlock(\n      (conv1): Conv2d(64, 128, kernel_size=(3, 3), stride=(2, 2), padding=(1, 1), bias=False)\n      (bn1): BatchNorm2d(128, eps=1e-05, momentum=0.1, affine=True, track_running_stats=True)\n      (drop_block): Identity()\n      (act1): ReLU(inplace=True)\n      (aa): Identity()\n      (conv2): Conv2d(128, 128, kernel_size=(3, 3), stride=(1, 1), padding=(1, 1), bias=False)\n      (bn2): BatchNorm2d(128, eps=1e-05, momentum=0.1, affine=True, track_running_stats=True)\n      (se): SEModule(\n        (fc1): Conv2d(128, 8, kernel_size=(1, 1), stride=(1, 1))\n        (bn): Identity()\n        (act): ReLU(inplace=True)\n        (fc2): Conv2d(8, 128, kernel_size=(1, 1), stride=(1, 1))\n        (gate): Sigmoid()\n      )\n      (act2): ReLU(inplace=True)\n      (downsample): Sequential(\n        (0): Conv2d(64, 128, kernel_size=(1, 1), stride=(2, 2), bias=False)\n        (1): BatchNorm2d(128, eps=1e-05, momentum=0.1, affine=True, track_running_stats=True)\n      )\n    )\n    (1): BasicBlock(\n      (conv1): Conv2d(128, 128, kernel_size=(3, 3), stride=(1, 1), padding=(1, 1), bias=False)\n      (bn1): BatchNorm2d(128, eps=1e-05, momentum=0.1, affine=True, track_running_stats=True)\n      (drop_block): Identity()\n      (act1): ReLU(inplace=True)\n      (aa): Identity()\n      (conv2): Conv2d(128, 128, kernel_size=(3, 3), stride=(1, 1), padding=(1, 1), bias=False)\n      (bn2): BatchNorm2d(128, eps=1e-05, momentum=0.1, affine=True, track_running_stats=True)\n      (se): SEModule(\n        (fc1): Conv2d(128, 8, kernel_size=(1, 1), stride=(1, 1))\n        (bn): Identity()\n        (act): ReLU(inplace=True)\n        (fc2): Conv2d(8, 128, kernel_size=(1, 1), stride=(1, 1))\n        (gate): Sigmoid()\n      )\n      (act2): ReLU(inplace=True)\n    )\n  )\n  (layer3): Sequential(\n    (0): BasicBlock(\n      (conv1): Conv2d(128, 256, kernel_size=(3, 3), stride=(2, 2), padding=(1, 1), bias=False)\n      (bn1): BatchNorm2d(256, eps=1e-05, momentum=0.1, affine=True, track_running_stats=True)\n      (drop_block): Identity()\n      (act1): ReLU(inplace=True)\n      (aa): Identity()\n      (conv2): Conv2d(256, 256, kernel_size=(3, 3), stride=(1, 1), padding=(1, 1), bias=False)\n      (bn2): BatchNorm2d(256, eps=1e-05, momentum=0.1, affine=True, track_running_stats=True)\n      (se): SEModule(\n        (fc1): Conv2d(256, 16, kernel_size=(1, 1), stride=(1, 1))\n        (bn): Identity()\n        (act): ReLU(inplace=True)\n        (fc2): Conv2d(16, 256, kernel_size=(1, 1), stride=(1, 1))\n        (gate): Sigmoid()\n      )\n      (act2): ReLU(inplace=True)\n      (downsample): Sequential(\n        (0): Conv2d(128, 256, kernel_size=(1, 1), stride=(2, 2), bias=False)\n        (1): BatchNorm2d(256, eps=1e-05, momentum=0.1, affine=True, track_running_stats=True)\n      )\n    )\n    (1): BasicBlock(\n      (conv1): Conv2d(256, 256, kernel_size=(3, 3), stride=(1, 1), padding=(1, 1), bias=False)\n      (bn1): BatchNorm2d(256, eps=1e-05, momentum=0.1, affine=True, track_running_stats=True)\n      (drop_block): Identity()\n      (act1): ReLU(inplace=True)\n      (aa): Identity()\n      (conv2): Conv2d(256, 256, kernel_size=(3, 3), stride=(1, 1), padding=(1, 1), bias=False)\n      (bn2): BatchNorm2d(256, eps=1e-05, momentum=0.1, affine=True, track_running_stats=True)\n      (se): SEModule(\n        (fc1): Conv2d(256, 16, kernel_size=(1, 1), stride=(1, 1))\n        (bn): Identity()\n        (act): ReLU(inplace=True)\n        (fc2): Conv2d(16, 256, kernel_size=(1, 1), stride=(1, 1))\n        (gate): Sigmoid()\n      )\n      (act2): ReLU(inplace=True)\n    )\n  )\n  (layer4): Sequential(\n    (0): BasicBlock(\n      (conv1): Conv2d(256, 512, kernel_size=(3, 3), stride=(2, 2), padding=(1, 1), bias=False)\n      (bn1): BatchNorm2d(512, eps=1e-05, momentum=0.1, affine=True, track_running_stats=True)\n      (drop_block): Identity()\n      (act1): ReLU(inplace=True)\n      (aa): Identity()\n      (conv2): Conv2d(512, 512, kernel_size=(3, 3), stride=(1, 1), padding=(1, 1), bias=False)\n      (bn2): BatchNorm2d(512, eps=1e-05, momentum=0.1, affine=True, track_running_stats=True)\n      (se): SEModule(\n        (fc1): Conv2d(512, 32, kernel_size=(1, 1), stride=(1, 1))\n        (bn): Identity()\n        (act): ReLU(inplace=True)\n        (fc2): Conv2d(32, 512, kernel_size=(1, 1), stride=(1, 1))\n        (gate): Sigmoid()\n      )\n      (act2): ReLU(inplace=True)\n      (downsample): Sequential(\n        (0): Conv2d(256, 512, kernel_size=(1, 1), stride=(2, 2), bias=False)\n        (1): BatchNorm2d(512, eps=1e-05, momentum=0.1, affine=True, track_running_stats=True)\n      )\n    )\n    (1): BasicBlock(\n      (conv1): Conv2d(512, 512, kernel_size=(3, 3), stride=(1, 1), padding=(1, 1), bias=False)\n      (bn1): BatchNorm2d(512, eps=1e-05, momentum=0.1, affine=True, track_running_stats=True)\n      (drop_block): Identity()\n      (act1): ReLU(inplace=True)\n      (aa): Identity()\n      (conv2): Conv2d(512, 512, kernel_size=(3, 3), stride=(1, 1), padding=(1, 1), bias=False)\n      (bn2): BatchNorm2d(512, eps=1e-05, momentum=0.1, affine=True, track_running_stats=True)\n      (se): SEModule(\n        (fc1): Conv2d(512, 32, kernel_size=(1, 1), stride=(1, 1))\n        (bn): Identity()\n        (act): ReLU(inplace=True)\n        (fc2): Conv2d(32, 512, kernel_size=(1, 1), stride=(1, 1))\n        (gate): Sigmoid()\n      )\n      (act2): ReLU(inplace=True)\n    )\n  )\n  (global_pool): SelectAdaptivePool2d(pool_type=avg, flatten=Flatten(start_dim=1, end_dim=-1))\n  (fc): Linear(in_features=512, out_features=1000, bias=True)\n)\n\n\n\nfrom fasterai.prune.all import *\n\n\ndummy_input = torch.randn(16, 3, 224, 224)\n\n\nm = timm.create_model('seresnet18')\n\n\nbenchmark(m, dummy_input)\n\nInference time CPU (ms/image):6.694 ms +/- 0.092 ms\nFPS CPU: 149.3904126039974\nInference time GPU (ms/image): 0.267 ms +/- 0.003 ms\nFPS GPU: 3743.6464639069623\nNombre de paramètres: 1
…
ing until a sparsity of [15]%\n\n\n\n\n\n\n\n\n\nepoch\ntrain_loss\nvalid_loss\naccuracy\ntime\n\n\n\n\n0\n0.229940\n0.149480\n0.954140\n00:22\n\n\n1\n0.284875\n0.233207\n0.931720\n00:23\n\n\n2\n0.514571\n0.384040\n0.893503\n00:23\n\n\n3\n0.489109\n0.383850\n0.891720\n00:21\n\n\n4\n0.521241\n0.386732\n0.892739\n00:21\n\n\n\n\n\nSparsity at the end of epoch 0: [0.59]%\nSparsity at the end of epoch 1: [6.02]%\nSparsity at the end of epoch 2: [13.76]%\nSparsity at the end of epoch 3: [14.92]%\nSparsity at the end of epoch 4: [15.0]%\nFinal Sparsity: [15.0]%\n\n\n\nlearn.model\n\nResNet(\n  (conv1): Conv2d(3, 54, kernel_size=(7, 7), stride=(2, 2), padding=(3, 3), bias=False)\n  (bn1): BatchNorm2d(54, eps=1e-05, momentum=0.1, affine=True, track_running_stats=True)\n  (act1): ReLU(inplace=True)\n  (maxpool): MaxPool2d(kernel_size=3, stride=2, padding=1, dilation=1, ceil_mode=False)\n  (layer1): Sequential(\n    (0): BasicBlock(\n      (conv1): Conv2d(54, 54, kernel_size=(3, 3), stride=(1, 1), padding=(1, 1), bias=False)\n      (bn1): BatchNorm2d(54, eps=1e-05, momentum=0.1, affine=True, track_running_stats=True)\n      (drop_block): Identity()\n      (act1): ReLU(inplace=True)\n      (aa): Identity()\n      (conv2): Conv2d(54, 54, kernel_size=(3, 3), stride=(1, 1), padding=(1, 1), bias=False)\n      (bn2): BatchNorm2d(54, eps=1e-05, momentum=0.1, affine=True, track_running_stats=True)\n      (act2): ReLU(inplace=True)\n    )\n    (1): BasicBlock(\n      (conv1): Conv2d(54, 54, kernel_size=(3, 3), stride=(1, 1), padding=(1, 1), bias=False)\n      (bn1): BatchNorm2d(54, eps=1e-05, momentum=0.1, affine=True, track_running_stats=True)\n      (drop_block): Identity()\n      (act1): ReLU(inplace=True)\n      (aa): Identity()\n      (conv2): Conv2d(54, 54, kernel_size=(3, 3), stride=(1, 1), padding=(1, 1), bias=False)\n      (bn2): BatchNorm2d(54, eps=1e-05, momentum=0.1, affine=True, track_running_stats=True)\n      (act2): ReLU(inplace=True)\n    )\n  )\n  (layer2): Sequential(\n    (0): BasicBlock(\n      (conv1): Conv2d(54, 108, kernel_size=(3, 3), stride=(2, 2), padding=(1, 1), bias=False)\n      (bn1): BatchNorm2d(108, eps=1e-05, momentum=0.1, affine=True, track_running_stats=True)\n      (drop_block): Identity()\n      (act1): ReLU(inplace=True)\n      (aa): Identity()\n      (conv2): Conv2d(108, 108, kernel_size=(3, 3), stride=(1, 1), padding=(1, 1), bias=False)\n      (bn2): BatchNorm2d(108, eps=1e-05, momentum=0.1, affine=True, track_running_stats=True)\n      (act2): ReLU(inplace=True)\n      (downsample): Sequential(\n        (0): Conv2d(54, 108, kernel_size=(1, 1), stride=(2, 2), bias=False)\n        (1): BatchNorm2d(108, eps=1e-05, momentum=0.1, affine=True, track_running_stats=True)\n      )\n    )\n    (1): BasicBlock(\n      (conv1): Conv2d(108, 108, kernel_size=(3, 3), stride=(1, 1), padding=(1, 1), bias=False)\n      (bn1): BatchNorm2d(108, eps=1e-05, momentum=0.1, affine=True, track_running_stats=True)\n      (drop_block): Identity()\n      (act1): ReLU(inplace=True)\n      (aa): Identity()\n      (conv2): Conv2d(108, 108, kernel_size=(3, 3), stride=(1, 1), padding=(1, 1), bias=False)\n      (bn2): BatchNorm2d(108, eps=1e-05, momentum=0.1, affine=True, track_running_stats=True)\n      (act2): ReLU(inplace=True)\n    )\n  )\n  (layer3): Sequential(\n    (0): BasicBlock(\n      (conv1): Conv2d(108, 217, kernel_size=(3, 3), stride=(2, 2), padding=(1, 1), bias=False)\n      (bn1): BatchNorm2d(217, eps=1e-05, momentum=0.1, affine=True, track_running_stats=True)\n      (drop_block): Identity()\n      (act1): ReLU(inplace=True)\n      (aa): Identity()\n      (conv2): Conv2d(217, 217, kernel_size=(3, 3), stride=(1, 1), padding=(1, 1), bias=False)\n      (bn2): BatchNorm2d(217, eps=1e-05, momentum=0.1, affine=True, track_running_stats=True)\n      (act2): ReLU(inplace=True)\n      (downsample): Sequential(\n        (0): Conv2d(108, 217, kernel_size=(1, 1), stride=(2, 2), bias=False)\n        (1): BatchNorm2d(217, eps=1e-05, momentum=0.1, affine=True, track_running_stats=True)\n      )\n    )\n    (1): BasicBlock(\n      (conv1): Conv2d(217, 217, kernel_size=(3, 3), stride=(1, 1), padding=(1, 1), bias=False)\n      (bn1): BatchNorm2d(217, eps=1e-05, momentum=0.1, affine=True, track_running_stats=True)\n      (drop_block): Identity()\n      (act1): ReLU(inplace=True)\n      (aa): Identity()\n      (conv2): Conv2d(217, 217, kernel_size=(3, 3), stride=(1, 1), padding=(1, 1), bias=False)\n      (bn2): BatchNorm2d(217, eps=1e-05, momentum=0.1, affine=True, track_running_stats=True)\n      (act2): ReLU(inplace=True)\n    )\n  )\n  (layer4): Sequential(\n    (0): BasicBlock(\n      (conv1): Conv2d(217, 435, kernel_size=(3, 3), stride=(2, 2), padding=(1, 1), bias=False)\n      (bn1): BatchNorm2d(435, eps=1e-05, momentum=0.1, affine=True, track_running_stats=True)\n      (drop_block): Identity()\n      (act1): ReLU(inplace=True)\n      (aa): Identity()\n      (conv2): Conv2d(435, 435, kernel_size=(3, 3), stride=(1, 1), padding=(1, 1), bias=False)\n      (bn2): BatchNorm2d(435, eps=1e-05, momentum=0.1, affine=True, track_running_stats=True)\n      (act2): ReLU(inplace=True)\n      (downsample): Sequential(\n        (0): Conv2d(217, 435, kernel_size=(1, 1), stride=(2, 2), bias=False)\n        (1): BatchNorm2d(435, eps=1e-05, momentum=0.1, affine=True, track_running_stats=True)\n      )\n    )\n    (1): BasicBlock(\n      (conv1): Conv2d(435, 435, kernel_size=(3, 3), stride=(1, 1), padding=(1, 1), bias=False)\n      (bn1): BatchNorm2d(435, eps=1e-05, momentum=0.1, affine=True, track_running_stats=True)\n      (drop_block): Identity()\n      (act1): ReLU(inplace=True)\n      (aa): Identity()\n      (conv2): Conv2d(435, 435, kernel_size=(3, 3), stride=(1, 1), padding=(1, 1), bias=False)\n      (bn2): BatchNorm2d(435, eps=1e-05, momentum=0.1, affine=True, track_running_stats=True)\n      (act2): ReLU(inplace=True)\n    )\n  )\n  (global_pool): SelectAdaptivePool2d(pool_type=avg, flatten=Flatten(start_dim=1, end_dim=-1))\n  (fc): Linear(in_features=435, out_features=1000, bias=True)\n)\n\n\n\ndls = get_dls(128, 64)\n\n\n#learn = vision_learner(dls, 'vgg16_bn', metrics = [accuracy])\nlearn = vision_learner(dls, resnet18, metrics = [accuracy])\nlearn.unfreeze()\n\n\nignored_layers = []\nnum_heads = {}\n\nfor m in learn.model.modules():\n    #if hasattr(m, 'head'): #isinstance(m, nn.Linear) and m.out_features == model.num_classes:\n
…
Sparsity at the end of epoch 13: [21.58]%\nSparsity at the end of epoch 14: [22.93]%\nSparsity at the end of epoch 15: [23.78]%\nSparsity at the end of epoch 16: [24.29]%\nSparsity at the end of epoch 17: [24.59]%\nSparsity at the end of epoch 18: [24.77]%\nSparsity at the end of epoch 19: [24.87]%\nSparsity at the end of epoch 20: [24.93]%\nSparsity at the end of epoch 21: [24.96]%\nSparsity at the end of epoch 22: [24.98]%\nSparsity at the end of epoch 23: [24.99]%\nSparsity at the end of epoch 24: [25.0]%\nFinal Sparsity: [25.0]%\n\n\n\nlearn.model\n\nSequential(\n  (0): Sequential(\n    (0): Conv2d(3, 64, kernel_size=(7, 7), stride=(2, 2), padding=(3, 3), bias=False)\n    (1): BatchNorm2d(64, eps=1e-05, momentum=0.1, affine=True, track_running_stats=True)\n    (2): ReLU(inplace=True)\n    (3): MaxPool2d(kernel_size=3, stride=2, padding=1, dilation=1, ceil_mode=False)\n    (4): Sequential(\n      (0): BasicBlock(\n        (conv1): Conv2d(64, 64, kernel_size=(3, 3), stride=(1, 1), padding=(1, 1), bias=False)\n        (bn1): BatchNorm2d(64, eps=1e-05, momentum=0.1, affine=True, track_running_stats=True)\n        (relu): ReLU(inplace=True)\n        (conv2): Conv2d(64, 64, kernel_size=(3, 3), stride=(1, 1), padding=(1, 1), bias=False)\n        (bn2): BatchNorm2d(64, eps=1e-05, momentum=0.1, affine=True, track_running_stats=True)\n      )\n      (1): BasicBlock(\n        (conv1): Conv2d(64, 64, kernel_size=(3, 3), stride=(1, 1), padding=(1, 1), bias=False)\n        (bn1): BatchNorm2d(64, eps=1e-05, momentum=0.1, affine=True, track_running_stats=True)\n        (relu): ReLU(inplace=True)\n        (conv2): Conv2d(64, 64, kernel_size=(3, 3), stride=(1, 1), padding=(1, 1), bias=False)\n        (bn2): BatchNorm2d(64, eps=1e-05, momentum=0.1, affine=True, track_running_stats=True)\n      )\n    )\n    (5): Sequential(\n      (0): BasicBlock(\n        (conv1): Conv2d(64, 128, kernel_size=(3, 3), stride=(2, 2), padding=(1, 1), bias=False)\n        (bn1): BatchNorm2d(128, eps=1e-05, momentum=0.1, affine=True, track_running_stats=True)\n        (relu): ReLU(inplace=True)\n        (conv2): Conv2d(128, 128, kernel_size=(3, 3), stride=(1, 1), padding=(1, 1), bias=False)\n        (bn2): BatchNorm2d(128, eps=1e-05, momentum=0.1, affine=True, track_running_stats=True)\n        (downsample): Sequential(\n          (0): Conv2d(64, 128, kernel_size=(1, 1), stride=(2, 2), bias=False)\n          (1): BatchNorm2d(128, eps=1e-05, momentum=0.1, affine=True, track_running_stats=True)\n        )\n      )\n      (1): BasicBlock(\n        (conv1): Conv2d(128, 128, kernel_size=(3, 3), stride=(1, 1), padding=(1, 1), bias=False)\n        (bn1): BatchNorm2d(128, eps=1e-05, momentum=0.1, affine=True, track_running_stats=True)\n        (relu): ReLU(inplace=True)\n        (conv2): Conv2d(128, 128, kernel_size=(3, 3), stride=(1, 1), padding=(1, 1), bias=False)\n        (bn2): BatchNorm2d(128, eps=1e-05, momentum=0.1, affine=True, track_running_stats=True)\n      )\n    )\n    (6): Sequential(\n      (0): BasicBlock(\n        (conv1): Conv2d(128, 256, kernel_size=(3, 3), stride=(2, 2), padding=(1, 1), bias=False)\n        (bn1): BatchNorm2d(256, eps=1e-05, momentum=0.1, affine=True, track_running_stats=True)\n        (relu): ReLU(inplace=True)\n        (conv2): Conv2d(256, 256, kernel_size=(3, 3), stride=(1, 1), padding=(1, 1), bias=False)\n        (bn2): BatchNorm2d(256, eps=1e-05, momentum=0.1, affine=True, track_running_stats=True)\n        (downsample): Sequential(\n          (0): Conv2d(128, 256, kernel_size=(1, 1), stride=(2, 2), bias=False)\n          (1): BatchNorm2d(256, eps=1e-05, momentum=0.1, affine=True, track_running_stats=True)\n        )\n      )\n      (1): BasicBlock(\n        (conv1): Conv2d(256, 251, kernel_size=(3, 3), stride=(1, 1), padding=(1, 1), bias=False)\n        (bn1): BatchNorm2d(251, eps=1e-05, momentum=0.1, affine=True, track_running_stats=True)\n        (relu): ReLU(inplace=True)\n        (conv2): Conv2d(251, 256, kernel_size=(3, 3), stride=(1, 1), padding=(1, 1), bias=False)\n        (bn2): BatchNorm2d(256, eps=1e-05, momentum=0.1, affine=True, track_running_stats=True)\n      )\n    )\n    (7): Sequential(\n      (0): BasicBlock(\n        (conv1): Conv2d(256, 384, kernel_size=(3, 3), stride=(2, 2), padding=(1, 1), bias=False)\n        (bn1): BatchNorm2d(384, eps=1e-05, momentum=0.1, affine=True, track_running_stats=True)\n        (relu): ReLU(inplace=True)\n        (conv2): Conv2d(384, 434, kernel_size=(3, 3), stride=(1, 1), padding=(1, 1), bias=False)\n        (bn2): BatchNorm2d(434, eps=1e-05, momentum=0.1, affine=True, track_running_stats=True)\n        (downsample): Sequential(\n          (0): Conv2d(256, 434, kernel_size=(1, 1), stride=(2, 2), bias=False)\n          (1): BatchNorm2d(434, eps=1e-05, momentum=0.1, affine=True, track_running_stats=True)\n        )\n      )\n      (1): BasicBlock(\n        (conv1): Conv2d(434, 3, kernel_size=(3, 3), stride=(1, 1), padding=(1, 1), bias=False)\n        (bn1): BatchNorm2d(3, eps=1e-05, momentum=0.1, affine=True, track_running_stats=True)\n        (relu): ReLU(inplace=True)\n        (conv2): Conv2d(3, 434, kernel_size=(3, 3), stride=(1, 1), padding=(1, 1), bias=False)\n        (bn2): BatchNorm2d(434, eps=1e-05, momentum=0.1, affine=True, track_running_stats=True)\n      )\n    )\n  )\n  (1): Sequential(\n    (0): AdaptiveConcatPool2d(\n      (ap): AdaptiveAvgPool2d(output_size=1)\n      (mp): AdaptiveMaxPool2d(output_size=1)\n    )\n    (1): fastai.layers.Flatten(full=False)\n    (2): BatchNorm1d(868, eps=1e-05, momentum=0.1, affine=True, track_running_stats=True)\n    (3): Dropout(p=0.25, inplace=False)\n    (4): Linear(in_features=868, out_features=512, bias=False)\n    (5): ReLU(inplace=True)\n    (6): BatchNorm1d(512, eps=1e-05, momentum=0.1, affine=True, track_running_stats=True)\n    (7): Dropout(p=0.5, inplace=False)\n    (8): Linear(in_features=512, out_features=10, bias=False)\n  )\n)\n\n\n\nlearn = vision_learner(dls, resnet18, metrics = [accuracy])\nprint(learn.model)\nprint(sum(p.numel() for p in learn.model.parameters() if p.requires_grad))\n\nSequential(\n  (0): Sequential(\n    (0): Conv2d(3, 64, kernel_size=(7, 7), stride=(2, 2), padding=(3, 3), bias=False)\n    (1): BatchNorm2d(64, eps=1e-05, momentum=0.1, affine=True, track_running_stats=True)\n    (2): ReLU(inplace=True)\n    (3): MaxPool2d(kernel_size=3, stride=2, padding=1, dilation=1, ceil_mode=False)\n    (4): Sequential(\n      (0): BasicBlock(\n        (conv1): Conv2d(64, 64, kernel_size=(3, 3), stride=(1, 1), padding=(1, 1), bias=False)\n        (bn1): BatchNorm2d(64, eps=1e-05, momentum=0.1, affine=True, track_running_stats=True)\n        (relu): ReLU(inplace=True)\n        (conv2): Conv2d(64, 64, kernel_size=(3, 3), stride=(1, 1), padding=(1, 1), bias=False)\n        (bn2): BatchNorm2d(64, eps=1e-05, momentum=0.1, affine=True, track_running_stats=True)\n      )\n      (1): BasicBlock(\n        (conv1): Conv2d(64, 64, kernel_size=(3, 3), stride=(1, 1), padding=(1, 1), bias=False)\n        (bn1): BatchNorm2d(64, eps=1e-05, momentum=0.1, affine=True, track_running_stats=True)\n        (relu): ReLU(inplace=True)\n        (conv2): Conv2d(64, 64, kernel_size=(3, 3), stride=(1, 1), padding=(1, 1), bias=False)\n        (bn2): BatchNorm2d(64, eps=1e-05, momentum=0.1, affine=True, track_running_stats=True)\n      )\n    )\n    (5): Sequential(\n      (0): BasicBlock(\n        (conv1): Conv2d(64, 128, kernel_size=(3, 3), stride=(2, 2), padding=(1, 1), bias=False)\n        (bn1): BatchNorm2d(128, eps=1e-05, momentum=0.1, affine=True, track_running_stats=True)\n        (relu): ReLU(inplace=True)\n        (conv2): Conv2d(128, 128, kernel_size=(3, 3), stride=(1, 1), padding=(1, 1), bias=False)\n        (bn2): BatchNorm2d(128, eps=1e-05, momentum=0.1, affine=True, track_running_stats=True)\n        (downsample): Sequential(\n          (0): Conv2d(64, 128, kernel_size=(1, 1), stride=(2, 2), bias=False)\n          (1): BatchNorm2d(128, eps=1e-05, momentum=0.1, affine=True, track_running_stats=True)\n        )\n      )\n      (1): BasicBlock(\n        (conv1): Conv2d(128, 128, kernel_size=(3, 3), stride=(1, 1), padding=(1, 1), bias=False)\n        (bn1): BatchNorm2d(128, eps=1e-05, momentum=0.1, affine=True, track_running_stats=True)\n        (relu): ReLU(inplace=True)\n        (conv2): Conv2d(128, 128, kernel_size=(3, 3), stride=(1, 1), padding=(1, 1), bias=False)\n        (bn2): BatchNorm2d(128, eps=1e-05, momentum=0.1, affine=True, track_running_stats=True)\n      )\n    )\n    (6): Sequential(\n      (0): BasicBlock(\n        (conv1): Conv2d(128, 256, kernel_size=(3, 3), stride=(2, 2), padding=(1, 1), bias=False)\n        (bn1): BatchNorm2d(256, eps=1e-05, momentum=0.1, affine=True, track_running_stats=True)\n        (relu): ReLU(inplace=True)\n        (conv2): Conv2d(256, 256, kernel_size=(3, 3), stride=(1, 1), padding=(1, 1), bias=False)\n        (bn2): BatchNorm2d(256, eps=1e-05, momentum=0.1, affine=True, track_running_stats=True)\n        (downsample): Sequential(\n          (0): Conv2d(128, 256, kernel_size=(1, 1), stride=(2, 2), bias=False)\n          (1): BatchNorm2d(256, eps=1e-05, momentum=0.1, affine=True, track_running_stats=True)\n        )\n      )\n      (1): BasicBlock(\n        (conv1): Conv2d(256, 256, kernel_size=(3, 3), stride=(1, 1), padding=(1, 1), bias=False)\n        (bn1): BatchNorm2d(256, eps=1e-05, momentum=0.1, affine=True, track_running_stats=True)\n        (relu): ReLU(inplace=True)\n        (conv2): Conv2d(256, 256, kernel_size=(3, 3), stride=(1, 1), padding=(1, 1), bias=False)\n        (bn2): BatchNorm2d(256, eps=1e-05, momentum=0.1, affine=True, track_running_stats=True)\n      )\n    )\n    (7): Sequential(\n      (0): BasicBlock(\n        (conv1): Conv2d(256, 512, kernel_size=(3, 3), stride=(2, 2), padding=(1, 1), bias=False)\n        (bn1): BatchNorm2d(512, eps=1e-05, momentum=0.1, affine=True, track_running_stats=True)\n        (relu): ReLU(inplace=True)\n        (conv2): Conv2d(512, 512, kernel_size=(3, 3), stride=(1, 1), padding=(1, 1), bias=False)\n        (bn2): BatchNorm2d(512, eps=1e-05, momentum=0.1, affine=True, track_running_stats=True)\n        (downsample): Sequential(\n          (0): Conv2d(256, 512, kernel_size=(1, 1), stride=(2, 2), bias=False)\n          (1): BatchNorm2d(512, eps=1e-05, momentum=0.1, affine=True, track_running_stats=True)\n        )\n      )\n      (1): BasicBlock(\n        (conv1): Conv2d(512, 512, kernel_size=(3, 3), stride=(1, 1), padding=(1, 1), bias=False)\n        (bn1): BatchNorm2d(512, eps=1e-05, momentum=0.1, affine=True, track_running_stats=True)\n        (relu): ReLU(inplace=True)\n        (conv2): Conv2d(512, 512, kernel_size=(3, 3), stride=(1, 1), padding=(1, 1), bias=False)\n        (bn2): BatchNorm2d(512, eps=1e-05, momentum=0.1, affine=True, track_running_stats=True)\n      )\n    )\n  )\n  (1): Sequential(\n    (0): AdaptiveConcatPool2d(\n      (ap): AdaptiveAvgPool2d(output_size=1)\n      (mp): AdaptiveMaxPool2d(output_size=1)\n    )\n    (1): fastai.layers.Flatten(full=False)\n    (2): BatchNorm1d(1024, eps=1e-05, momentum=0.1, affine=True, track_running_stats=True)\n    (3): Dropout(p=0.25, inplace=False)\n    (4): Linear(in_features=1024, out_features=512, bias=False)\n    (5): ReLU(inplace=True)\n    (6): BatchNorm1d(512, eps=1e-05, momentum=0.1, affine=True, track_running_stats=True)\n    (7): Dropout(p=0.5, inplace=False)\n    (8): Linear(in_features=512, out_features=10, bias=False)\n  )\n)\n542080\n\n\n\nlearn = vision_learner(dls, 'resnet18', metrics = [accuracy])\nprint(learn.model)\nprint(sum(p.numel() for p in learn.model.parameters() if p.requires_grad))\n\nSequential(\n  (0): TimmBody(\n    (model): ResNet(\n      (conv1): Conv2d(3, 64, kernel_size=(7, 7), stride=(2, 2), padding=(3, 3), bias=False)\n      (bn1): BatchNorm2d(64, eps=1e-05, momentum=0.1, affine=True, track_running_stats=True)\n      (act1): ReLU(inplace=True)\n      (maxpool): MaxPool2d(kernel_size=3, stride=2, padding=1, dilation=1, ceil_mode=False)\n      (layer1): Sequential(\n        (0): BasicBlock(\n          (conv1): Conv2d(64, 64, kernel_size=(3, 3), stride=(1, 1), padding=(1, 1), bias=False)\n          (bn1): BatchNorm2d(64, eps=1e-05, momentum=0.1, affine=True, track_running_stats=True)\n          (drop_block): Identity()\n          (act1): ReLU(inplace=True)\n          (aa): Identity()\n          (conv2): Conv2d(64, 64, kernel_size=(3, 3), stride=(1, 1), padding=(1, 1), bias=False)\n          (bn2): BatchNorm2d(64, eps=1e-05, momentum=0.1, affine=True, track_running_stats=True)\n          (act2): ReLU(inplace=True)\n        )\n        (1): BasicBlock(\n          (conv1): Conv2d(64, 64, kernel_size=(3, 3), stride=(1, 1), padding=(1, 1), bias=False)\n          (bn1): BatchNorm2d(64, eps=1e-05, momentum=0.1, affine=True, track_running_stats=True)\n          (drop_block): Identity()\n          (act1): ReLU(inplace=True)\n          (aa): Identity()\n          (conv2): Conv2d(64, 64, kernel_size=(3, 3), stride=(1, 1), padding=(1, 1), bias=False)\n          (bn2): BatchNorm2d(64, eps=1e-05, momentum=0.1, affine=True, track_running_stats=True)\n          (act2): ReLU(inplace=True)\n        )\n      )\n      (layer2): Sequential(\n        (0): BasicBlock(\n          (conv1): Conv2d(64, 128, kernel_size=(3, 3), stride=(2, 2), padding=(1, 1), bias=False)\n          (bn1): BatchNorm2d(128, eps=1e-05, momentum=0.1, affine=True, track_running_stats=True)\n          (drop_block): Identity()\n          (act1): ReLU(inplace=True)\n          (aa): Identity()\n          (conv2): Conv2d(128, 128, kernel_size=(3, 3), stride=(1, 1), padding=(1, 1), bias=False)\n          (bn2): BatchNorm2d(128, eps=1e-05, momentum=0.1, affine=True, track_running_stats=True)\n          (act2): ReLU(inplace=True)\n          (downsample): Sequential(\n            (0): Conv2d(64, 128, kernel_size=(1, 1), stride=(2, 2), bias=False)\n            (1): BatchNorm2d(128, eps=1e-05, momentum=0.1, affine=True, track_running_stats=True)\n          )\n        )\n        (1): BasicBlock(\n          (conv1): Conv2d(128, 128, kernel_size=(3, 3), stride=(1, 1), padding=(1, 1), bias=False)\n          (bn1): BatchNorm2d(128, eps=1e-05, momentum=0.1, affine=True, track_running_stats=True)\n          (drop_block): Identity()\n          (act1): ReLU(inplace=True)\n          (aa): Identity()\n          (conv2): Conv2d(128, 128, kernel_size=(3, 3), stride=(1, 1), padding=(1, 1), bias=False)\n          (bn2): BatchNorm2d(128, eps=1e-05, momentum=0.1, affine=True, track_running_stats=True)\n          (act2): ReLU(inplace=True)\n        )\n      )\n      (layer3): Sequential(\n        (0): BasicBlock(\n          (conv1): Conv2d(128, 256, kernel_size=(3, 3), stride=(2, 2), padding=(1, 1), bias=False)\n          (bn1): BatchNorm2d(256, eps=1e-05, momentum=0.1, affine=True, track_running_stats=True)\n          (drop_block): Identity()\n          (act1): ReLU(inplace=True)\n          (aa): Identity()\n          (conv2): Conv2d(256, 256, kernel_size=(3, 3), stride=(1, 1), padding=(1, 1), bias=False)\n          (bn2): BatchNorm2d(256, eps=1e-05, momentum=0.1, affine=True, track_running_stats=True)\n          (act2): ReLU(inplace=True)\n          (downsample): Sequential(\n            (0): Conv2d(128, 256, kernel_size=(1, 1), stride=(2, 2), bias=False)\n            (1): BatchNorm2d(256, eps=1e-05, momentum=0.1, affine=True, track_running_stats=True)\n          )\n        )\n        (1): BasicBlock(\n          (conv1): Conv2d(256, 256, kernel_size=(3, 3), stride=(1, 1), padding=(1, 1), bias=False)\n          (bn1): BatchNorm2d(256, eps=1e-05, momentum=0.1, affine=True, track_running_stats=True)\n          (drop_block): Identity()\n          (act1): ReLU(inplace=True)\n          (aa): Identity()\n          (conv2): Conv2d(256, 256, kernel_size=(3, 3), stride=(1, 1), padding=(1, 1), bias=False)\n          (bn2): BatchNorm2d(256, eps=1e-05, momentum=0.1, affine=True, track_running_stats=True)\n          (act2): ReLU(inplace=True)\n        )\n      )\n      (layer4): Sequential(\n        (0): BasicBlock(\n          (conv1): Conv2d(256, 512, kernel_size=(3, 3), stride=(2, 2), padding=(1, 1), bias=False)\n          (bn1): BatchNorm2d(512, eps=1e-05, momentum=0.1, affine=True, track_running_stats=True)\n          (drop_block): Identity()\n          (act1): ReLU(inplace=True)\n          (aa): Identity()\n          (conv2): Conv2d(512, 512, kernel_size=(3, 3), stride=(1, 1), padding=(1, 1), bias=False)\n          (bn2): BatchNorm2d(512, eps=1e-05, momentum=0.1, affine=True, track_running_stats=True)\n          (act2): ReLU(inplace=True)\n          (downsample): Sequential(\n            (0): Conv2d(256, 512, kernel_size=(1, 1), stride=(2, 2), bias=False)\n            (1): BatchNorm2d(512, eps=1e-05, momentum=0.1, affine=True, track_running_stats=True)\n          )\n        )\n        (1): BasicBlock(\n          (conv1): Conv2d(512, 512, kernel_size=(3, 3), stride=(1, 1), padding=(1, 1), bias=False)\n          (bn1): BatchNorm2d(512, eps=1e-05, momentum=0.1, affine=True, track_running_stats=True)\n          (drop_block): Identity()\n          (act1): ReLU(inplace=True)\n          (aa): Identity()\n          (conv2): Conv2d(512, 512, kernel_size=(3, 3), stride=(1, 1), padding=(1, 1), bias=False)\n          (bn2): BatchNorm2d(512, eps=1e-05, momentum=0.1, affine=True, track_running_stats=True)\n          (act2): ReLU(inplace=True)\n        )\n      )\n      (global_pool): SelectAdaptivePool2d(pool_type=avg, flatten=Flatten(start_dim=1, end_dim=-1))\n      (fc): Identity()\n    )\n  )\n  (1): Sequential(\n    (0): AdaptiveConcatPool2d(\n      (ap): AdaptiveAvgPool2d(output_size=1)\n      (mp): AdaptiveMaxPool2d(output_size=1)\n    )\n    (1): fastai.layers.Flatten(full=False)\n    (2): BatchNorm1d(1024, eps=1e-05, momentum=0.1, affine=True, track_running_stats=True)\n    (3): Dropout(p=0.25, inplace=False)\n    (4): Linear(in_features=1024, out_features=512, bias=False)\n    (5): ReLU(inplace=True)\n    (6): BatchNorm1d(512, eps=1e-05, momentum=0.1, affine=True, track_running_stats=True)\n    (7): Dropout(p=0.5, inplace=False)\n    (8): Linear(in_features=512, out_features=10, bias=False)\n  )\n)\n542080\n\n\n\ntimm.list_models()\n\n['bat_resnext26ts',\n 'beit_base_patch16_224',\n 'beit_base_patch16_384',\n 'beit_large_patch16_224',\n 'beit_large_patch16_384',\n 'beit_large_patch16_512',\n 'beitv2_base_patch16_224',\n 'beitv2_large_patch16_224',\n 'botnet26t_256',\n 'botnet50ts_256',\n 'caformer_b36',\n 'caformer_m36',\n 'caformer_s18',
…
775 if type(condition) is not torch.Tensor and has_torch_function((condition,)):\n   1776     return handle_torch_function(_assert, (condition,), condition, message)\n-&gt; 1777 assert condition, message\n\nAssertionError: \n\n\n\n\npr_cb = PruneCallback(pruning_ratio=0.25, schedule=onecycle_scheduler, global_pruning=False, criteria=GroupNormImportance(normalizer=None, target_types=[nn.modules.conv._ConvNd, nn.Linear]), isomorphic=False, ignored_layers=ignored_layers)\nlearn.fit_one_cycle(25, 1e-4, cbs=pr_cb)\n\n\nlearn.model\n\nSequential(\n  (0): TimmBody(\n    (model): ResNet(\n      (conv1): Conv2d(3, 64, kernel_size=(7, 7), stride=(2, 2), padding=(3, 3), bias=False)\n      (bn1): BatchNorm2d(64, eps=1e-05, momentum=0.1, affine=True, track_running_stats=True)\n      (act1): ReLU(inplace=True)\n      (maxpool): MaxPool2d(kernel_size=3, stride=2, padding=1, dilation=1, ceil_mode=False)\n      (layer1): Sequential(\n        (0): BasicBlock(\n          (conv1): Conv2d(64, 61, kernel_size=(3, 3), stride=(1, 1), padding=(1, 1), bias=False)\n          (bn1): BatchNorm2d(61, eps=1e-05, momentum=0.1, affine=True, track_running_stats=True)\n          (drop_block): Identity()\n          (act1): ReLU(inplace=True)\n          (aa): Identity()\n          (conv2): Conv2d(61, 64, kernel_size=(3, 3), stride=(1, 1), padding=(1, 1), bias=False)\n          (bn2): BatchNorm2d(64, eps=1e-05, momentum=0.1, affine=True, track_running_stats=True)\n          (act2): ReLU(inplace=True)\n        )\n        (1): BasicBlock(\n          (conv1): Conv2d(64, 64, kernel_size=(3, 3), stride=(1, 1), padding=(1, 1), bias=False)\n          (bn1): BatchNorm2d(64, eps=1e-05, momentum=0.1, affine=True, track_running_stats=True)\n          (drop_block): Identity()\n          (act1): ReLU(inplace=True)\n          (aa): Identity()\n          (conv2): Conv2d(64, 64, kernel_size=(3, 3), stride=(1, 1), padding=(1, 1), bias=False)\n          (bn2): BatchNorm2d(64, eps=1e-05, momentum=0.1, affine=True, track_running_stats=True)\n          (act2): ReLU(inplace=True)\n        )\n      )\n      (layer2): Sequential(\n        (0): BasicBlock(\n          (conv1): Conv2d(64, 128, kernel_size=(3, 3), stride=(2, 2), padding=(1, 1), bias=False)\n          (bn1): BatchNorm2d(128, eps=1e-05, momentum=0.1, affine=True, track_running_stats=True)\n          (drop_block): Identity()\n          (act1): ReLU(inplace=True)\n          (aa): Identity()\n          (conv2): Conv2d(128, 128, kernel_size=(3, 3), stride=(1, 1), padding=(1, 1), bias=False)\n          (bn2): BatchNorm2d(128, eps=1e-05, momentum=0.1, affine=True, track_running_stats=True)\n          (act2): ReLU(inplace=True)\n          (downsample): Sequential(\n            (0): Conv2d(64, 128, kernel_size=(1, 1), stride=(2, 2), bias=False)\n            (1): BatchNorm2d(128, eps=1e-05, momentum=0.1, affine=True, track_running_stats=True)\n          )\n        )\n        (1): BasicBlock(\n          (conv1): Conv2d(128, 128, kernel_size=(3, 3), stride=(1, 1), padding=(1, 1), bias=False)\n          (bn1): BatchNorm2d(128, eps=1e-05, momentum=0.1, affine=True, track_running_stats=True)\n          (drop_block): Identity()\n          (act1): ReLU(inplace=True)\n          (aa): Identity()\n          (conv2): Conv2d(128, 128, kernel_size=(3, 3), stride=(1, 1), padding=(1, 1), bias=False)\n          (bn2): BatchNorm2d(128, eps=1e-05, momentum=0.1, affine=True, track_running_stats=True)\n          (act2): ReLU(inplace=True)\n        )\n      )\n      (layer3): Sequential(\n        (0): BasicBlock(\n          (conv1): Conv2d(128, 256, kernel_size=(3, 3), stride=(2, 2), padding=(1, 1), bias=False)\n          (bn1): BatchNorm2d(256, eps=1e-05, momentum=0.1, affine=True, track_running_stats=True)\n          (drop_block): Identity()\n          (act1): ReLU(inplace=True)\n          (aa): Identity()\n          (conv2): Conv2d(256, 256, kernel_size=(3, 3), stride=(1, 1), padding=(1, 1), bias=False)\n          (bn2): BatchNorm2d(256, eps=1e-05, momentum=0.1, affine=True, track_running_stats=True)\n          (act2): ReLU(inplace=True)\n          (downsample): Sequential(\n            (0): Conv2d(128, 256, kernel_size=(1, 1), stride=(2, 2), bias=False)\n            (1): BatchNorm2d(256, eps=1e-05, momentum=0.1, affine=True, track_running_stats=True)\n          )\n        )\n        (1): BasicBlock(\n          (conv1): Conv2d(256, 253, kernel_size=(3, 3), stride=(1, 1), padding=(1, 1), bias=False)\n          (bn1): BatchNorm2d(253, eps=1e-05, momentum=0.1, affine=True, track_running_stats=True)\n          (drop_block): Identity()\n          (act1): ReLU(inplace=True)\n          (aa): Identity()\n          (conv2): Conv2d(253, 256, kernel_size=(3, 3), stride=(1, 1), padding=(1, 1), bias=False)\n          (bn2): BatchNorm2d(256, eps=1e-05, momentum=0.1, affine=True, track_running_stats=True)\n          (act2): ReLU(inplace=True)\n        )\n      )\n      (layer4): Sequential(\n        (0): BasicBlock(\n          (conv1): Conv2d(256, 503, kernel_size=(3, 3), stride=(2, 2), padding=(1, 1), bias=False)\n          (bn1): BatchNorm2d(503, eps=1e-05, momentum=0.1, affine=True, track_running_stats=True)\n          (drop_block): Identity()\n          (act1): ReLU(inplace=True)\n          (aa): Identity()\n          (conv2): Conv2d(503, 245, kernel_size=(3, 3), stride=(1, 1), padding=(1, 1), bias=False)\n          (bn2): BatchNorm2d(245, eps=1e-05, momentum=0.1, affine=True, track_running_stats=True)\n          (act2): ReLU(inplace=True)\n          (downsample): Sequential(\n            (0): Conv2d(256, 245, kernel_size=(1, 1), stride=(2, 2), bias=False)\n            (1): BatchNorm2d(245, eps=1e-05, momentum=0.1, affine=True, track_running_stats=True)\n          )\n        )\n        (1): BasicBlock(\n          (conv1): Conv2d(245, 458, kernel_size=(3, 3), stride=(1, 1), padding=(1, 1), bias=False)\n          (bn1): BatchNorm2d(458, eps=1e-05, momentum=0.1, affine=True, track_running_stats=True)\n          (drop_block): Identity()\n          (act1): ReLU(inplace=True)\n          (aa): Identity()\n          (conv2): Conv2d(458, 245, kernel_size=(3, 3), stride=(1, 1), padding=(1, 1), bias=False)\n          (bn2): BatchNorm2d(245, eps=1e-05, momentum=0.1, affine=True, track_running_stats=True)\n          (act2): ReLU(inplace=True)\n        )\n      )\n      (global_pool): SelectAdaptivePool2d(pool_type=avg, flatten=Flatten(start_dim=1, end_dim=-1))\n      (fc): Identity()\n    )\n  )\n  (1): Sequential(\n    (0): AdaptiveConcatPool2d(\n      (ap): AdaptiveAvgPool2d(output_size=1)\n      (mp): AdaptiveMaxPool2d(output_size=1)\n    )\n    (1): fastai.layers.Flatten(full=False)\n    (2): BatchNorm1d(490, eps=1e-05, momentum=0.1, affine=True, track_running_stats=True)\n    (3): Dropout(p=0.25, inplace=False)\n    (4): Linear(in_features=490, out_features=1, bias=False)\n    (5): ReLU(inplace=True)\n    (6): BatchNorm1d(1, eps=1e-05, momentum=0.1, affine=True, track_running_stats=True)\n    (7): Dropout(p=0.5, inplace=False)\n    (8): Linear(in_features=1, out_features=10, bias=False)\n  )\n)\n\n\n\nimport abc\nimport torch\nimport torch.nn as nn\n\nimport typing\n\nfrom torch_pruning import function\nfrom torch_pruning.dependency import Group\n\nclass Importance(abc.ABC):\n    \"\"\" Estimate the importance of a tp.Dependency.Group, and return an 1-D per-channel importance score.\n\n        It should accept a group as inputs, and ret
…
           group_idxs.append(root_idxs)\n\n                    if self.bias and layer.bias is not None:\n                        local_imp = layer.bias.data[idxs].abs().pow(self.p)\n                        group_imp.append(local_imp)\n                        group_idxs.append(root_idxs)\n\n        if len(group_imp) == 0: # skip groups without parameterized layers\n            return None\n\n        group_imp = self._reduce(group_imp, group_idxs)\n        group_imp = self._normalize(group_imp, self.normalizer)\n        return group_imp\n\n\nlearn.model\n\nSequential(\n  (0): Sequential(\n    (0): Conv2d(3, 19, kernel_size=(7, 7), stride=(2, 2), padding=(3, 3), bias=False)\n    (1): BatchNorm2d(19, eps=1e-05, momentum=0.1, affine=True, track_running_stats=True)\n    (2): ReLU(inplace=True)\n    (3): MaxPool2d(kernel_size=3, stride=2, padding=1, dilation=1, ceil_mode=False)\n    (4): Sequential(\n      (0): BasicBlock(\n        (conv1): Conv2d(19, 5, kernel_size=(3, 3), stride=(1, 1), padding=(1, 1), bias=False)\n        (bn1): BatchNorm2d(5, eps=1e-05, momentum=0.1, affine=True, track_running_stats=True)\n        (relu): ReLU(inplace=True)\n        (conv2): Conv2d(5, 19, kernel_size=(3, 3), stride=(1, 1), padding=(1, 1), bias=False)\n        (bn2): BatchNorm2d(19, eps=1e-05, momentum=0.1, affine=True, track_running_stats=True)\n      )\n      (1): BasicBlock(\n        (conv1): Conv2d(19, 2, kernel_size=(3, 3), stride=(1, 1), padding=(1, 1), bias=False)\n        (bn1): BatchNorm2d(2, eps=1e-05, momentum=0.1, affine=True, track_running_stats=True)\n        (relu): ReLU(inplace=True)\n        (conv2): Conv2d(2, 19, kernel_size=(3, 3), stride=(1, 1), padding=(1, 1), bias=False)\n        (bn2): BatchNorm2d(19, eps=1e-05, momentum=0.1, affine=True, track_running_stats=True)\n      )\n    )\n    (5): Sequential(\n      (0): BasicBlock(\n        (conv1): Conv2d(19, 8, kernel_size=(3, 3), stride=(2, 2), padding=(1, 1), bias=False)\n        (bn1): BatchNorm2d(8, eps=1e-05, momentum=0.1, affine=True, track_running_stats=True)\n        (relu): ReLU(inplace=True)\n        (conv2): Conv2d(8, 19, kernel_size=(3, 3), stride=(1, 1), padding=(1, 1), bias=False)\n        (bn2): BatchNorm2d(19, eps=1e-05, momentum=0.1, affine=True, track_running_stats=True)\n        (downsample): Sequential(\n          (0): Conv2d(19, 19, kernel_size=(1, 1), stride=(2, 2), bias=False)\n          (1): BatchNorm2d(19, eps=1e-05, momentum=0.1, affine=True, track_running_stats=True)\n        )\n      )\n      (1): BasicBlock(\n        (conv1): Conv2d(19, 21, kernel_size=(3, 3), stride=(1, 1), padding=(1, 1), bias=False)\n        (bn1): BatchNorm2d(21, eps=1e-05, momentum=0.1, affine=True, track_running_stats=True)\n        (relu): ReLU(inplace=True)\n        (conv2): Conv2d(21, 19, kernel_size=(3, 3), stride=(1, 1), padding=(1, 1), bias=False)\n        (bn2): BatchNorm2d(19, eps=1e-05, momentum=0.1, affine=True, track_running_stats=True)\n      )\n    )\n    (6): Sequential(\n      (0): BasicBlock(\n        (conv1): Conv2d(19, 11, kernel_size=(3, 3), stride=(2, 2), padding=(1, 1), bias=False)\n        (bn1): BatchNorm2d(11, eps=1e-05, momentum=0.1, affine=True, track_running_stats=True)\n        (relu): ReLU(inplace=True)\n        (conv2): Conv2d(11, 207, kernel_size=(3, 3), stride=(1, 1), padding=(1, 1), bias=False)\n        (bn2): BatchNorm2d(207, eps=1e-05, momentum=0.1, affine=True, track_running_stats=True)\n        (downsample): Sequential(\n          (0): Conv2d(19, 207, kernel_size=(1, 1), stride=(2, 2), bias=False)\n          (1): BatchNorm2d(207, eps=1e-05, momentum=0.1, affine=True, track_running_stats=True)\n        )\n      )\n      (1): BasicBlock(\n        (conv1): Conv2d(207, 204, kernel_size=(3, 3), stride=(1, 1), padding=(1, 1), bias=False)\n        (bn1): BatchNorm2d(204, eps=1e-05, momentum=0.1, affine=True, track_running_stats=True)\n        (relu): ReLU(inplace=True)\n        (conv2): Conv2d(204, 207, kernel_size=(3, 3), stride=(1, 1), padding=(1, 1), bias=False)\n        (bn2): BatchNorm2d(207, eps=1e-05, momentum=0.1, affine=True, track_running_stats=True)\n      )\n    )\n    (7): Sequential(\n      (0): BasicBlock(\n        (conv1): Conv2d(207, 512, kernel_size=(3, 3), stride=(2, 2), padding=(1, 1), bias=False)\n        (bn1): BatchNorm2d(512, eps=1e-05, momentum=0.1, affine=True, track_running_stats=True)\n        (relu): ReLU(inplace=True)\n        (conv2): Conv2d(512, 512, kernel_size=(3, 3), stride=(1, 1), padding=(1, 1), bias=False)\n        (bn2): BatchNorm2d(512, eps=1e-05, momentum=0.1, affine=True, track_running_stats=True)\n        (downsample): Sequential(\n          (0): Conv2d(207, 512, kernel_size=(1, 1), stride=(2, 2), bias=False)\n          (1): BatchNorm2d(512, eps=1e-05, momentum=0.1, affine=True, track_running_stats=True)\n        )\n      )\n      (1): BasicBlock(\n        (conv1): Conv2d(512, 512, kernel_size=(3, 3), stride=(1, 1), padding=(1, 1), bias=False)\n        (bn1): BatchNorm2d(512, eps=1e-05, momentum=0.1, affine=True, track_running_stats=True)\n        (relu): ReLU(inplace=True)\n        (conv2): Conv2d(512, 512, kernel_size=(3, 3), stride=(1, 1), padding=(1, 1), bias=False)\n        (bn2): BatchNorm2d(512, eps=1e-05, momentum=0.1, affine=True, track_running_stats=True)\n      )\n    )\n  )\n  (1): Sequential(\n    (0): AdaptiveConcatPool2d(\n      (ap): AdaptiveAvgPool2d(output_size=1)\n      (mp): AdaptiveMaxPool2d(output_size=1)\n    )\n    (1): fastai.layers.Flatten(full=False)\n    (2): BatchNorm1d(1024, eps=1e-05, momentum=0.1, affine=True, track_running_stats=True)\n    (3): Dropout(p=0.25, inplace=False)\n    (4): Linear(in_features=1024, out_features=512, bias=False)\n    (5): ReLU(inplace=True)\n    (6): BatchNorm1d(512, eps=1e-05, momentum=0.1, affine=True, track_running_stats=True)\n    (7): Dropout(p=0.5, inplace=False)\n    (8): Linear(in_features=512, out_features=10, bias=False)\n  )\n)\n\n\n\n# True\nlearn.model\n\nSequential(\n  (0): TimmBody(\n    (model): ResNet(\n      (conv1): Conv2d(3, 32, kernel_size=(7, 7), stride=(2, 2), padding=(3, 3), bias=False)\n      (bn1): BatchNorm2d(32, eps=1e-05, momentum=0.1, affine=True, track_running_stats=True)\n      (act1): ReLU(inplace=True)\n      (maxpool): MaxPool2d(kernel_size=3, stride=2, padding=1, dilation=1, ceil_mode=False)\n      (layer1): Sequential(\n        (0): BasicBlock(\n          (conv1): Conv2d(32, 2, kernel_size=(3, 3), stride=(1, 1), padding=(1, 1), bias=False)\n          (bn1): BatchNorm2d(2, eps=1e-05, momentum=0.1, affine=True, track_running_stats=True)\n          (drop_block): Identity()\n          (act1): ReLU(inplace=True)\n          (aa): Identity()\n          (conv2): Conv2d(2, 32, kernel_size=(3, 3), stride=(1, 1), padding=(1, 1), bias=False)\n          (bn2): BatchNorm2d(32, eps=1e-05, momentum=0.1, affine=True, track_running_stats=True)\n          (act2): ReLU(inplace=True)\n        )\n        (1): BasicBlock(\n          (conv1): Conv2d(32, 10, kernel_size=(3, 3), stride=(1, 1), padding=(1, 1), bias=False)\n          (bn1): BatchNorm2d(10, eps=1e-05, momentum=0.1, affine=True, track_running_stats=True)\n          (drop_block): Identity()\n          (act1): ReLU(inplace=True)\n          (aa): Identity()\n          (conv2): Conv2d(10, 32, kernel_size=(3, 3), stride=(1, 1), padding=(1, 1), bias=False)\n          (bn2): BatchNorm2d(32, eps=1e-05, momentum=0.1, affine=True, track_running_stats=True)\n          (act2): ReLU(inplace=True)\n        )\n      )\n      (layer2): Sequential(\n        (0): BasicBlock(\n          (conv1): Conv2d(32, 2, kernel_size=(3, 3), stride=(2, 2), padding=(1, 1), bias=False)\n          (bn1): BatchNorm2d(2, eps=1e-05, momentum=0.1, affine=True, track_running_stats=True)\n          (drop_block): Identity()\n          (act1): ReLU(inplace=True)\n          (aa): Identity()\n          (conv2): Conv2d(2, 4, kernel_size=(3, 3), stride=(1, 1), padding=(1, 1), bias=False)\n          (bn2): BatchNorm2d(4, eps=1e-05, momentum=0.1, affine=True, track_running_stats=True)\n          (act2): ReLU(inplace=True)\n          (downsample): Sequential(\n            (0): Conv2d(32, 4, kernel_size=(1, 1), stride=(2, 2), bias=False)\n            (1): BatchNorm2d(4, eps=1e-05, momentum=0.1, affine=True, track_running_stats=True)\n          )\n        )\n        (1): BasicBlock(\n          (conv1): Conv2d(4, 3, kernel_size=(3, 3), stride=(1, 1), padding=(1, 1), bias=False)\n          (bn1): BatchNorm2d(3, eps=1e-05, momentum=0.1, affine=True, track_running_stats=True)\n          (drop_block): Identity()\n          (act1): ReLU(inplace=True)\n          (aa): Identity()\n          (conv2): Conv2d(3, 4, kernel_size=(3, 3), stride=(1, 1), padding=(1, 1), bias=False)\n          (bn2): BatchNorm2d(4, eps=1e-05, momentum=0.1, affine=True, track_running_stats=True)\n          (act2): ReLU(inplace=True)\n        )\n      )\n      (layer3): Sequential(\n        (0): BasicBlock(\n          (conv1): Conv2d(4, 90, kernel_size=(3, 3), stride=(2, 2), padding=(1, 1), bias=False)\n          (bn1): BatchNorm2d(90, eps=1e-05, momentum=0.1, affine=True, track_running_stats=True)\n          (drop_block): Identity()\n          (act1): ReLU(inplace=True)\n          (aa): Identity()\n          (conv2): Conv2d(90, 188, kernel_size=(3, 3), stride=(1, 1), padding=(1, 1), bias=False)\n          (bn2): BatchNorm2d(188, eps=1e-05, momentum=0.1, affine=True, track_running_stats=True)\n          (act2): ReLU(inplace=True)\n          (downsample): Sequential(\n            (0): Conv2d(4, 188, kernel_size=(1, 1), stride=(2, 2), bias=False)\n            (1): BatchNorm2d(188, eps=1e-05, momentum=0.1, affine=True, track_running_stats=True)\n          )\n        )\n        (1): BasicBlock(\n          (conv1): Conv2d(188, 201, kernel_size=(3, 3), stride=(1, 1), padding=(1, 1), bias=False)\n          (bn1): BatchNorm2d(201, eps=1e-05, momentum=0.1, affine=True, track_running_stats=True)\n          (drop_block): Identity()\n          (act1): ReLU(inplace=True)\n          (aa): Identity()\n          (conv2): Conv2d(201, 188, kernel_size=(3, 3), stride=(1, 1), padding=(1, 1), bias=False)\n          (bn2): BatchNorm2d(188, eps=1e-05, momentum=0.1, affine=True, track_running_stats=True)\n          (act2): ReLU(inplace=True)\n        )\n      )\n      (layer4): Sequential(\n        (0): BasicBlock(\n          (conv1): Conv2d(188, 417, kernel_size=(3, 3), stride=(2, 2), padding=(1, 1), bias=False)\n          (bn1): BatchNorm2d(417, eps=1e-05, momentum=0.1, affine=True, track_running_stats=True)\n          (drop_block): Identity()\n          (act1): ReLU(inplace=True)\n          (aa): Identity()\n          (conv2): Conv2d(417, 256, kernel_size=(3, 3), stride=(1, 1), padding=(1, 1), bias=False)\n          (bn2): BatchNorm2d(256, eps=1e-05, momentum=0.1, affine=True, track_running_stats=True)\n          (act2): ReLU(inplace=True)\n          (downsample): Sequential(\n            (0): Conv2d(188, 256, kernel_size=(1, 1), stride=(2, 2), bias=False)\n            (1): BatchNorm2d(256, eps=1e-05, momentum=0.1, affine=True, track_running_stats=True)\n          )\n        )\n        (1): BasicBlock(\n          (conv1): Conv2d(256, 235, kernel_size=(3, 3), stride=(1, 1), padding=(1, 1), bias=False)\n          (bn1): BatchNorm2d(235, eps=1e-05, momentum=0.1, affine=True, track_running_stats=True)\n          (drop_block): Identity()\n          (act1): ReLU(inplace=True)\n          (aa): Identity()\n          (conv2): Conv2d(235, 256, kernel_size=(3, 3), stride=(1, 1), padding=(1, 1), bias=False)\n          (bn2): BatchNorm2d(256, eps=1e-05, momentum=0.1, affine=True, track_running_stats=True)\n          (act2): ReLU(inplace=True)\n        )\n      )\n      (global_pool): SelectAdaptivePool2d(pool_type=avg, flatten=Flatten(start_dim=1, end_dim=-1))\n      (fc): Identity()\n    )\n  )\n  (1): Sequential(\n    (0): AdaptiveConcatPool2d(\n      (ap): AdaptiveAvgPool2d(output_size=1)\n      (mp): AdaptiveMaxPool2d(output_size=1)\n    )\n    (1): fastai.layers.Flatten(full=False)\n    (2): BatchNorm1d(512, eps=1e-05, momentum=0.1, affine=True, track_running_stats=True)\n    (3): Dropout(p=0.25, inplace=False)\n    (4): Linear(in_features=512, out_features=256, bias=False)\n    (5): ReLU(inplace=True)\n    (6): BatchNorm1d(256, eps=1e-05, momentum=0.1, affine=True, track_running_stats=True)\n    (7): Dropout(p=0.5, inplace=False)\n    (8): Linear(in_features=256, out_features=10, bias=False)\n  )\n)\n\n\n\npr_cb = PruneCallback(pruning_ratio=0.25, schedule=onecycle_scheduler, context=False, criteria=tp.importance.GroupNormImportance(), num_heads=num_heads, ignored_layers=ignored_layers)\n\nlearn.fit_one_cycle(25, 1e-4, cbs=pr_cb)\n\n/home/HubensN/miniconda3/envs/fasterai/lib/python3.9/site-packages/torch_pruning/dependency.py:697: UserWarn
…
-----------------------\nTypeError                                 Traceback (most recent call last)\nCell In[9], line 6\n      3     if isinstance(m, torch.nn.Linear) and m.out_features == dls.c:\n      4         ignored_layers.append(m)\n----&gt; 6 pr_cb = PruneCallback(pruning_ratio=0.25, schedule=onecycle_scheduler, context=True, criteria=tp.importance.GroupNormImportance(p=2), isomorphic=True, ignored_layers=ignored_layers)\n      8 learn.fit_one_cycle(25, 1e-4, cbs=pr_cb)\n\nTypeError: __init__() got an unexpected keyword argument 'pruning_ratio'\n\n\n\n\nlearn.model\n\nResNet(\n  (conv1): Conv2d(3, 62, kernel_size=(7, 7), stride=(2, 2), padding=(3, 3), bias=False)\n  (bn1): BatchNorm2d(62, eps=1e-05, momentum=0.1, affine=True, track_running_stats=True)\n  (relu): ReLU(inplace=True)\n  (maxpool): MaxPool2d(kernel_size=3, stride=2, padding=1, dilation=1, ceil_mode=False)\n  (layer1): Sequential(\n    (0): BasicBlock(\n      (conv1): Conv2d(62, 57, kernel_size=(3, 3), stride=(1, 1), padding=(1, 1), bias=False)\n      (bn1): BatchNorm2d(57, eps=1e-05, momentum=0.1, affine=True, track_running_stats=True)\n      (relu): ReLU(inplace=True)\n      (conv2): Conv2d(57, 62, kernel_size=(3, 3), stride=(1, 1), padding=(1, 1), bias=False)\n      (bn2): BatchNorm2d(62, eps=1e-05, momentum=0.1, affine=True, track_running_stats=True)\n    )\n    (1): BasicBlock(\n      (conv1): Conv2d(62, 61, kernel_size=(3, 3), stride=(1, 1), padding=(1, 1), bias=False)\n      (bn1): BatchNorm2d(61, eps=1e-05, momentum=0.1, affine=True, track_running_stats=True)\n      (relu): ReLU(inplace=True)\n      (conv2): Conv2d(61, 62, kernel_size=(3, 3), stride=(1, 1), padding=(1, 1), bias=False)\n      (bn2): BatchNorm2d(62, eps=1e-05, momentum=0.1, affine=True, track_running_stats=True)\n    )\n  )\n  (layer2): Sequential(\n    (0): BasicBlock(\n      (conv1): Conv2d(62, 110, kernel_size=(3, 3), stride=(2, 2), padding=(1, 1), bias=False)\n      (bn1): BatchNorm2d(110, eps=1e-05, momentum=0.1, affine=True, track_running_stats=True)\n      (relu): ReLU(inplace=True)\n      (conv2): Conv2d(110, 127, kernel_size=(3, 3), stride=(1, 1), padding=(1, 1), bias=False)\n      (bn2): BatchNorm2d(127, eps=1e-05, momentum=0.1, affine=True, track_running_stats=True)\n      (downsample): Sequential(\n        (0): Conv2d(62, 127, kernel_size=(1, 1), stride=(2, 2), bias=False)\n        (1): BatchNorm2d(127, eps=1e-05, momentum=0.1, affine=True, track_running_stats=True)\n      )\n    )\n    (1): BasicBlock(\n      (conv1): Conv2d(127, 116, kernel_size=(3, 3), stride=(1, 1), padding=(1, 1), bias=False)\n      (bn1): BatchNorm2d(116, eps=1e-05, momentum=0.1, affine=True, track_running_stats=True)\n      (relu): ReLU(inplace=True)\n      (conv2): Conv2d(116, 127, kernel_size=(3, 3), stride=(1, 1), padding=(1, 1), bias=False)\n      (bn2): BatchNorm2d(127, eps=1e-05, momentum=0.1, affine=True, track_running_stats=True)\n    )\n  )\n  (layer3): Sequential(\n    (0): BasicBlock(\n      (conv1): Conv2d(127, 214, kernel_size=(3, 3), stride=(2, 2), padding=(1, 1), bias=False)\n      (bn1): BatchNorm2d(214, eps=1e-05, momentum=0.1, affine=True, track_running_stats=True)\n      (relu): ReLU(inplace=True)\n      (conv2): Conv2d(214, 248, kernel_size=(3, 3), stride=(1, 1), padding=(1, 1), bias=False)\n      (bn2): BatchNorm2d(248, eps=1e-05, momentum=0.1, affine=True, track_running_stats=True)\n      (downsample): Sequential(\n        (0): Conv2d(127, 248, kernel_size=(1, 1), stride=(2, 2), bias=False)\n        (1): BatchNorm2d(248, eps=1e-05, momentum=0.1, affine=True, track_running_stats=True)\n      )\n    )\n    (1): BasicBlock(\n      (conv1): Conv2d(248, 230, kernel_size=(3, 3), stride=(1, 1), padding=(1, 1), bias=False)\n      (bn1): BatchNorm2d(230, eps=1e-05, momentum=0.1, affine=True, track_running_stats=True)\n      (relu): ReLU(inplace=True)\n      (conv2): Conv2d(230, 248, kernel_size=(3, 3), stride=(1, 1), padding=(1, 1), bias=False)\n      (bn2): BatchNorm2d(248, eps=1e-05, momentum=0.1, affine=True, track_running_stats=True)\n    )\n  )\n  (layer4): Sequential(\n    (0): BasicBlock(\n      (conv1): Conv2d(248, 404, kernel_size=(3, 3), stride=(2, 2), padding=(1, 1), bias=False)\n      (bn1): BatchNorm2d(404, eps=1e-05, momentum=0.1, affine=True, track_running_stats=True)\n      (relu): ReLU(inplace=True)\n      (conv2): Conv2d(404, 412, kernel_size=(3, 3), stride=(1, 1), padding=(1, 1), bias=False)\n      (bn2): BatchNorm2d(412, eps=1e-05, momentum=0.1, affine=True, track_running_stats=True)\n      (downsample): Sequential(\n        (0): Conv2d(248, 412, kernel_size=(1, 1), stride=(2, 2), bias=False)\n        (1): BatchNorm2d(412, eps=1e-05, momentum=0.1, affine=True, track_running_stats=True)\n      )\n    )\n    (1): BasicBlock(\n      (conv1): Conv2d(412, 119, kernel_size=(3, 3), stride=(1, 1), padding=(1, 1), bias=False)\n      (bn1): BatchNorm2d(119, eps=1e-05, momentum=0.1, affine=True, track_running_stats=True)\n      (relu): ReLU(inplace=True)\n      (conv2): Conv2d(119, 412, kernel_size=(3, 3), stride=(1, 1), padding=(1, 1), bias=False)\n      (bn2): BatchNorm2d(412, eps=1e-05, momentum=0.1, affine=True, track_running_stats=True)\n    )\n  )\n  (avgpool): AdaptiveAvgPool2d(output_size=(1, 1))\n  (fc): Linear(in_features=412, out_features=10, bias=True)\n)\n\n\n\ndef onecycle_scheduler(pruning_ratio_dict, steps, start=0, end=1, α=14, β=6):\n    return [\n        sched_onecycle(start, end, i / float(steps), α, β) * pruning_ratio_dict\n        for i in range(steps + 1)\n    ]\n\ndef sched_onecycle(start, end, pos, α=14, β=6):\n    out = (1 + np.exp(-α + β)) / (1 + np.exp((-α * pos) + β))\n    return start + (end - start) * out\n\n# Example usage\npruning_ratios = onecycle_scheduler(0.5, 100)  # Example with 50% pruning over 100 steps\nprint(pruning_ratios)\n\n[… \n\n\n\nplt.plot(pruning_ratios)\n\n\n\n\n\n\n\n\n\ndef linear_scheduler(pruning_ratio_dict, steps):\n    return [((i) / float(steps)) * pruning_ratio_dict for i in range(steps+1)]\n\nVGG(\n  (features): Sequential(\n    (0): Conv2d(3, 44, kernel_size=(3, 3), stride=(1, 1), padding=(1, 1))\n    (1): BatchNorm2d(44, eps=1e-05, momentum=0.1, affine=True, track_running_stats=True)\n    (2): ReLU(inplace=True)\n    (3): Conv2d(44, 44, kernel_size=(3, 3), stride=(1, 1), padding=(1, 1))\n    (4): BatchNorm2d(44, eps=1e-05, momentum=0.1, affine=True, track_running_stats=True)\n    (5): ReLU(inplace=True)\n    (6): MaxPool2d(kernel_size=2, stride=2, padding=0, dilation=1, ceil_mode=False)\n    (7): Conv2d(44, 89, kernel_size=(3, 3), stride=(1, 1), padding=(1, 1))\n    (8): BatchNorm2d(89, eps=1e-05, momentum=0.1, affine=True, track_running_stats=True)\n    (9): ReLU(inplace=True)\n    (10): Conv2d(89, 89, kernel_size=(3, 3), stride=(1, 1), padding=(1, 1))\n    (11): BatchNorm2d(89, eps=1e-05, momentum=0.1, affine=True, track_running_stats=True)\n    (12): ReLU(inplace=True)\n    (13): MaxPool2d(kernel_size=2, stride=2, padding=0, dilation=1, ceil_mode=False)\n    (14): Conv2d(89, 179, kernel_size=(3, 3), stride=(1, 1), padding=(1, 1))\n    (15): BatchNorm2d(179, eps=1e-05, momentum=0.1, affine=True, track_running_stats=True)\n    (16): ReLU(inplace=True)\n    (17): Conv2d(179, 179, kernel_size=(3, 3), stride=(1, 1), padding=(1, 1))\n    (18): BatchNorm2d(179, eps=1e-05, momentum=0.1, affine=True, track_running_stats=True)\n    (19): ReLU(inplace=True)\n    (20): Conv2d(179, 179, kernel_size=(3, 3), stride=(1, 1), padding=(1, 1))\n    (21): BatchNorm2d(179, eps=1e-05, momentum=0.1, affine=True, track_running_stats=True)\n    (22): ReLU(inplace=True)\n    (23): MaxPool2d(kernel_size=2, stride=2, padding=0, dilation=1, ceil_mode=False)\n    (24): Conv2d(179, 358, kernel_size=(3, 3), stride=(1, 1), padding=(1, 1))\n    (25): BatchNorm2d(358, eps=1e-05, momentum=0.1, affine=True, track_running_stats=True)\n    (26): ReLU(inplace=True)\n    (27): Conv2d(358, 358, kernel_size=(3, 3), stride=(1, 1), padding=(1, 1))\n    (28): BatchNorm2d(358, eps=1e-05, momentum=0.1, affine=True, track_running_stats=True)\n    (29): ReLU(inplace=True)\n    (30): Conv2d(358, 358, kernel_size=(3, 3), stride=(1, 1), padding=(1, 1))\n    (31): BatchNorm2d(358, eps=1e-05, momentum=0.1, affine=True, track_running_stats=True)\n    (32): ReLU(inplace=True)\n    (33): MaxPool2d(kernel_size=2, stride=2, padding=0, dilation=1, ceil_mode=False)\n    (34): Conv2d(358, 358, kernel_size=(3, 3), stride=(1, 1), padding=(1, 1))\n    (35): BatchNorm2d(358, eps=1e-05, momentum=0.1, affine=True, track_running_stats=True)\n    (36): ReLU(inplace=True)\n    (37): Conv2d(358, 358, kernel_size=(3, 3), stride=(1, 1), padding=(1, 1))\n    (38): BatchNorm2d(358, eps=1e-05, momentum=0.1, affine=True, track_running_stats=True)\n    (39): ReLU(inplace=True)\n    (40): Conv2d(358, 358, kernel_size=(3, 3), stride=(1, 1), padding=(1, 1))\n    (41): BatchNorm2d(358, eps=1e-05, momentum=0.1, affine=True, track_running_stats=True)\n    (42): ReLU(inplace=True)\n    (43): MaxPool2d(kernel_size=2, stride=2, padding=0, dilation=1, ceil_mode=False)\n  )\n  (avgpool): AdaptiveAvgPool2d(output_size=(7, 7))\n  (classifier): Sequential(\n    (0): Linear(in_features=17542, out_features=2867, bias=True)\n    (1): ReLU(inplace=True)\n    (2): Dropout(p=0.5, inplace=False)\n    (3): Linear(in_features=2867, out_features=2867, bias=True)\n    (4): ReLU(inplace=True)\n    (5): Dropout(p=0.5, inplace=False)\n    (6): Linear(in_features=2867, out_features=2, bias=True)\n  )\n)\n\n\n\nlearn = Learner(dls, resnet18(dls.c), metrics=accuracy)\n\n\nignored_layers = []\nfor m in learn.model.modules():\n    if isinstance(m, torch.nn.Linear) and m.out_features == dls.c:\n        ignored_layers.append(m) # DO NOT prune the final classifier!\n\npr_cb = PruneCallback(sparsity=0.5, context=\"False\", criteria=tp.importance.GroupN
…
      "Prune Callback"
    ]
  },
  {
    "objectID": "prune/prune.pruner-copy1.html",
    "href": "prune/prune.pruner-copy1.html",
    "title": "Pruner",
    "section": "",
    "text": "source\n\nPruner.prune_model\n\n Pruner.prune_model (sparsity, round_to=None)\n\nLet’s try the Pruner with a VGG16 model\n\ntorch.topk(torch.randn(1000), int(max(8*torch.floor(torch.tensor(30)/8), 8)))[0].min()\n\ntensor(2.0126)\n\n\n\ntorch.topk(torch.randn(1000), 30)[0].min()\n\ntensor(2.0065)\n\n\n\nmax(8*torch.floor(torch.tensor(30)/8), 8)\n\ntensor(24.)\n\n\n\nmodel = resnet18().to('cuda:0')\nmodel\n\nResNet(\n  (conv1): Conv2d(3, 64, kernel_size=(7, 7), stride=(2, 2), padding=(3, 3), bias=False)\n  (bn1): BatchNorm2d(64, eps=1e-05, momentum=0.1, affine=True, track_running_stats=True)\n  (relu): ReLU(inplace=True)\n  (maxpool): MaxPool2d(kernel_size=3, stride=2, padding=1, dilation=1, ceil_mode=False)\n  (layer1): Sequential(\n    (0): BasicBlock(\n      (conv1): Conv2d(64, 64, kernel_size=(3, 3), stride=(1, 1), padding=(1, 1), bias=False)\n      (bn1): BatchNorm2d(64, eps=1e-05, momentum=0.1, affine=True, track_running_stats=True)\n      (relu): ReLU(inplace=True)\n      (conv2): Conv2d(64, 64, kernel_size=(3, 3), stride=(1, 1), padding=(1, 1), bias=False)\n      (bn2): BatchNorm2d(64, eps=1e-05, momentum=0.1, affine=True, track_running_stats=True)\n    )\n    (1): BasicBlock(\n      (conv1): Conv2d(64, 64, kernel_size=(3, 3), stride=(1, 1), padding=(1, 1), bias=False)\n      (bn1): BatchNorm2d(64, eps=1e-05, momentum=0.1, affine=True, track_running_stats=True)\n      (relu): ReLU(inplace=True)\n      (conv2): Conv2d(64, 64, kernel_size=(3, 3), stride=(1, 1), padding=(1, 1), bias=False)\n      (bn2): BatchNorm2d(64, eps=1e-05, momentum=0.1, affine=True, track_running_stats=True)\n    )\n  )\n  (layer2): Sequential(\n    (0): BasicBlock(\n      (conv1): Conv2d(64, 128, kernel_size=(3, 3), stride=(2, 2), padding=(1, 1), bias=False)\n      (bn1): BatchNorm2d(128, eps=1e-05, momentum=0.1, affine=True, track_running_stats=True)\n      (relu): ReLU(inplace=True)\n      (conv2): Conv2d(128, 128, kernel_size=(3, 3), stride=(1, 1), padding=(1, 1), bias=False)\n      (bn2): BatchNorm2d(128, eps=1e-05, momentum=0.1, affine=True, track_running_stats=True)\n      (downsample): Sequential(\n        (0): Conv2d(64, 128, kernel_size=(1, 1), stride=(2, 2), bias=False)\n        (1): BatchNorm2d(128, eps=1e-05, momentum=0.1, affine=True, track_running_stats=True)\n      )\n    )\n    (1): BasicBlock(\n      (conv1): Conv2d(128, 128, kernel_size=(3, 3), stride=(1, 1), padding=(1, 1), bias=False)\n      (bn1): BatchNorm2d(128, eps=1e-05, momentum=0.1, affine=True, track_running_stats=True)\n      (relu): ReLU(inplace=True)\n      (conv2): Conv2d(128, 128, kernel_size=(3, 3), stride=(1, 1), padding=(1, 1), bias=False)\n      (bn2): BatchNorm2d(128, eps=1e-05, momentum=0.1, affine=True, track_running_stats=True)\n    )\n  )\n  (layer3): Sequential(\n    (0): BasicBlock(\n      (conv1): Conv2d(128, 256, kernel_size=(3, 3), stride=(2, 2), padding=(1, 1), bias=False)\n      (bn1): BatchNorm2d(256, eps=1e-05, momentum=0.1, affine=True, track_running_stats=True)\n      (relu): ReLU(inplace=True)\n      (conv2): Conv2d(256, 256, kernel_size=(3, 3), stride=(1, 1), padding=(1, 1), bias=False)\n      (bn2): BatchNorm2d(256, eps=1e-05, momentum=0.1, affine=True, track_running_stats=True)\n      (downsample): Sequential(\n        (0): Conv2d(128, 256, kernel_size=(1, 1), stride=(2, 2), bias=False)\n        (1): BatchNorm2d(256, eps=1e-05, momentum=0.1, affine=True, track_running_stats=True)\n      )\n    )\n    (1): BasicBlock(\n      (conv1): Conv2d(256, 256, kernel_size=(3, 3), stride=(1, 1), padding=(1, 1), bias=False)\n      (bn1): BatchNorm2d(256, eps=1e-05, momentum=0.1, affine=True, track_running_stats=True)\n      (relu): ReLU(inplace=True)\n      (conv2): Conv2d(256, 256, kernel_size=(3, 3), stride=(1, 1), padding=(1, 1), bias=False)\n      (bn2): BatchNorm2d(256, eps=1e-05, momentum=0.1, affine=True, track_running_stats=True)\n    )\n  )\n  (layer4): Sequential(\n    (0): BasicBlock(\n      (conv1): Conv2d(256, 512, kernel_size=(3, 3), stride=(2, 2), padding=(1, 1), bias=False)\n      (bn1): BatchNorm2d(512, eps=1e-05, momentum=0.1, affine=True, track_running_stats=True)\n      (relu): ReLU(inplace=True)\n      (conv2): Conv2d(512, 512, kernel_size=(3, 3), stride=(1, 1), padding=(1, 1), bias=False)\n      (bn2): BatchNorm2d(512, eps=1e-05, momentum=0.1, affine=True, track_running_stats=True)\n      (downsample): Sequential(\n        (0): Conv2d(256, 512, kernel_size=(1, 1), stride=(2, 2), bias=False)\n        (1): BatchNorm2d(512, eps=1e-05, momentum=0.1, affine=True, track_running_stats=True)\n      )\n    )\n    (1): BasicBlock(\n      (conv1): Conv2d(512, 512, kernel_size=(3, 3), stride=(1, 1), padding=(1, 1), bias=False)\n      (bn1): BatchNorm2d(512, eps=1e-05, momentum=0.1, affine=True, track_running_stats=True)\n      (relu): ReLU(inplace=True)\n      (conv2): Conv2d(512, 512, kernel_size=(3, 3), stride=(1, 1), padding=(1, 1), bias=False)\n      (bn2): BatchNorm2d(512, eps=1e-05, momentum=0.1, affine=True, track_running_stats=True)\n    )\n  )\n  (avgpool): AdaptiveAvgPool2d(output_size=(1, 1))\n  (fc): Linear(in_features=512, out_features=1000, bias=True)\n)\n\n\nThe Prunercan either remove filters based on local criteria (i.e. each layer will be trimmed of the same % of filters)\n\npruner = Pruner(model, 'local', large_final, layer_type=[nn.Conv2d])\npruner.prune_model(3, round_to=8)\nprint(model)\n\npruned_macs, pruned_params = tp.utils.count_ops_and_params(model, torch.randn(1,3,224,224).to('cuda:0')); pruned_macs, pruned_params\n\nResNet(\n  (conv1): Conv2d(3, 48, kernel_size=(7, 7), stride=(2, 2), padding=(3, 3), bias=False)\n  (bn1): BatchNorm2d(48, eps=1e-05, momentum=0.1, affine=True, track_running_stats=True)\n  (relu): ReLU(inplace=True)\n  (maxpool): MaxPool2d(kernel_size=3, stride=2, padding=1, dilation=1, ceil_mode=False)\n  (layer1): Sequential(\n    (0): BasicBlock(\n      (conv1): Conv2d(48, 48, kernel_size=(3, 3), stride=(1, 1), padding=(1, 1), bias=False)\n      (bn1): BatchNorm2d(48, eps=1e-05, momentum=0.1, affine=True, track_running_stats=True)\n      (relu): ReLU(inplace=True)\n      (conv2): Conv2d(48, 48, kernel_size=(3, 3), stride=(1, 1), padding=(1, 1), bias=False)\n      (bn2): BatchNorm2d(48, eps=1e-05, momentum=0.1, affine=True, track_running_stats=True)\n    )\n    (1): BasicBlock(\n      (conv1): Conv2d(48, 48, kernel_size=(3, 3), stride=(1, 1), padding=(1, 1), bias=False)\n      (bn1): BatchNorm2d(48, eps=1e-05, momentum=0.1, affine=True, track_running_stats=True)\n      (relu): ReLU(inplace=True)\n      (conv2): Conv2d(48, 48, kernel_size=(3, 3), stride=(1, 1), padding=(1, 1), bias=False)\n      (bn2): BatchNorm2d(48, eps=1e-05, momentum=0.1, affine=True, track_running_stats=True)\n    )\n  )\n  (layer2): Sequential(\n    (0): BasicBlock(\n      (conv1): Conv2d(48, 112, kernel_size=(3, 3), stride=(2, 2), padding=(1, 1), bias=False)\n      (bn1): BatchNorm2d(112, eps=1e-05, momentum=0.1, affine=True, track_running_stats=True)\n      (relu): ReLU(inplace=True)\n      (conv2): Conv2d(112, 112, kernel_size=(3, 3), stride=(1, 1), padding=(1, 1), bias=False)\n      (bn2): BatchNorm2d(112, eps=1e-05, momentum=0.1, affine=True, track_running_stats=True)\n      (downsample): Sequential(\n        (0): Conv2d(48, 112, kernel_size=(1, 1), stride=(2, 2), bias=False)\n        (1): BatchNorm2d(112, eps=1e-05, momentum=0.1, affine=True, track_running_stats=True)\n      )\n    )\n    (1): BasicBlock(\n      (conv1): Conv2d(112, 112, kernel_size=(3, 3), stride=(1, 1), padding=(1, 1), bias=False)\n      (bn1): BatchNorm2d(112, eps=1e-05, momentum=0.1, affine=True, track_running_stats=True)\n      (relu): ReLU(inplace=True)\n      (conv2): Conv2d(112, 112, kernel_size=(3, 3), stride=(1, 1), padding=(1, 1), bias=False)\n      (bn2): BatchNorm2d(112, eps=1e-05, momentum=0.1, affine=True, track_running_stats=True)\n    )\n  )\n  (layer3): Sequential(\n    (0): BasicBlock(\n      (conv1): Conv2d(112, 240, kernel_size=(3, 3), stride=(2, 2), padding=(1, 1), bias=False)\n      (bn1): BatchNorm2d(240, eps=1e-05, momentum=0.1, affine=True, track_running_stats=True)\n      (relu): ReLU(inplace=True)\n      (conv2): Conv2d(240, 240, kernel_size=(3, 3), stride=(1, 1), padding=(1, 1), bias=False)\n      (bn2): BatchNorm2d(240, eps=1e-05, momentum=0.1, affine=True, track_running_stats=True)\n      (downsample): Sequential(\n        (0): Conv2d(112, 240, kernel_size=(1, 1), stride=(2, 2), bias=False)\n        (1): BatchNorm2d(240, eps=1e-05, momentum=0.1, affine=True, track_running_stats=True)\n      )\n    )\n    (1): BasicBlock(\n      (conv1): Conv2d(240, 240, kernel_size=(3, 3), stride=(1, 1), padding=(1, 1), bias=False)\n      (bn1): BatchNorm2d(240, eps=1e-05, momentum=0.1, affine=True, track_running_stats=True)\n      (relu): ReLU(inplace=True)\n      (conv2): Conv2d(240, 240, kernel_size=(3, 3), stride=(1, 1), padding=(1, 1), bias=False)\n      (bn2): BatchNorm2d(240, eps=1e-05, momentum=0.1, affine=True, track_running_stats=True)\n    )\n  )\n  (layer4): Sequential(\n    (0): BasicBlock(\n      (conv1): Conv2d(240, 488, kernel_size=(3, 3), stride=(2, 2), padding=(1, 1), bias=False)\n      (bn1): BatchNorm2d(488, eps=1e-05, momentum=0.1, affine=True, track_running_stats=True)\n      (relu): ReLU(inplace=True)\n      (conv2): Conv2d(488, 488, kernel_size=(3, 3), stride=(1, 1), padding=(1, 1), bias=False)\n      (bn2): BatchNorm2d(488, eps=1e-05, momentum=0.1, affine=True, track_running_stats=True)\n      (downsample): Sequential(\n        (0): Conv2d(240, 488, kernel_size=(1, 1), stride=(2, 2), bias=False)\n        (1): BatchNorm2d(488, eps=1e-05, momentum=0.1, affine=True, track_running_stats=True)\n      )\n    )\n    (1): BasicBlock(\n      (conv1): Conv2d(488, 488, kernel_size=(3, 3), stride=(1, 1), padding=(1, 1), bias=False)\n      (bn1): BatchNorm2d(488, eps=1e-05, momentum=0.1, affine=True, track_running_stats=True)\n      (relu): ReLU(inplace=True)\n      (conv2): Conv2d(488, 488, kernel_size=(3, 3), stride=(1, 1), padding=(1, 1), bias=False)\n      (bn2): BatchNorm2d(488, eps=1e-05, momentum=0.1, affine=True, track_running_stats=True)\n    )\n  )\n  (avgpool): AdaptiveAvgPool2d(output_size=(1, 1))\n  (fc): Linear(in_features=488, out_features=1000, bias=True)\n)\n\n\n(1393209728.0, 10405416)\n\n\nThe Prunercan also remove filters based on global criteria (i.e. each layer will be trimmed of a different % of filters, but we specify the sparsity of the whole network)\n\nmodel = vgg16_bn()\n\n\npruner = Pruner(model, 'global', large_final, layer_type=[nn.Conv2d])\npruner.prune_model(50)\nprint(model)\n\npruned_macs, pruned_params = tp.utils.count_ops_and_params(model, torch.randn(1,3,224,224)); pruned_macs, pruned_params\n\nVGG(\n  (features): Sequential(\n    (0): Conv2d(3, 64, kernel_size=(3, 3), stride=(1, 1), padding=(1, 1))\n    (1): BatchNorm2d(64, eps=1e-05, momentum=0.1, affine=True, track_running_stats=True)\n    (2): ReLU(inplace=True)\n    (3): Conv2d(64, 64, kernel_size=(3, 3), stride=(1, 1), padding=(1, 1))\n    (4): BatchNorm2d(64, eps=1e-05, momentum=0.1, affine=True, track_running_stats=True)\n    (5): ReLU(inplace=True)\n    (6): MaxPool2d(kernel_size=2, stride=2, padding=0, dilation=1, ceil_mode=False)\n    (7): Conv2d(64, 128, kernel_size=(3, 3), stride=(1, 1), padding=(1, 1))\n    (8): BatchNorm2d(128, eps=1e-05, momentum=0.1, affine=True, track_running_stats=True)\n    (9): ReLU(inplace=True)\n    (10): Conv2d(128, 128, kernel_size=(3, 3), stride=(1, 1), padding=(1, 1))\n    (11): BatchNorm2d(128, eps=1e-05, momentum=0.1, affine=True, track_running_stats=True)\n    (12): ReLU(inplace=True)\n    (13): MaxPool2d(kernel_size=2, stride=2, padding=0, dilation=1, ceil_mode=False)\n    (14): Conv2d(128, 256, kernel_size=(3, 3), stride=(1, 1), padding=(1, 1))\n    (15): BatchNorm2d(256, eps=1e-05, momentum=0.1, affine=True, track_running_stats=True)\n    (16): ReLU(inplace=True)\n    (17): Conv2d(256, 256, kernel_size=(3, 3), stride=(1, 1), padding=(1, 1))\n    (18): BatchNorm2d(256, eps=1e-05, momentum=0.1, affine=True, track_running_stats=True)\n    (19): ReLU(inplace=True)\n    (20): Conv2d(256, 256, kernel_size=(3, 3), stride=(1, 1), padding=(1, 1))\n    (21): BatchNorm2d(256, eps=1e-05, momentum=0.1, affine=True, track_running_stats=True)\n    (22): ReLU(inplace=True)\n    (23): MaxPool2d(kernel_size=2, stride=2, padding=0, dilation=1, ceil_mode=False)\n    (24): Conv2d(256, 118, kernel_size=(3, 3), stride=(1, 1), padding=(1, 1))\n    (25): BatchNorm2d(118, eps=1e-05, momentum=0.1, affine=True, track_running_stats=True)\n    (26): ReLU(inplace=True)\n    (27): Conv2d(118, 82, kernel_size=(3, 3), stride=(1, 1), padding=(1, 1))\n    (28): BatchNorm2d(82, eps=1e-05, momentum=0.1, affine=True, track_running_stats=True)\n    (29): ReLU(inplace=True)\n    (30): Conv2d(82, 72, kernel_size=(3, 3), stride=(1, 1), padding=(1, 1))\n    (31): BatchNorm2d(72, eps=1e-05, momentum=0.1, affine=True, track_running_stats=True)\n    (32): ReLU(inplace=True)\n    (33): MaxPool2d(kernel_size=2, stride=2, padding=0, dilation=1, ceil_mode=False)\n    (34): Conv2d(72, 83, kernel_size=(3, 3), stride=(1, 1), padding=(1, 1))\n    (35): BatchNorm2d(83, eps=1e-05, momentum=0.1, affine=True, track_running_stats=True)\n    (36): ReLU(inplace=True)\n    (37): Conv2d(83, 93, kernel_size=(3, 3), stride=(1, 1), padding=(1, 1))\n    (38): BatchNorm2d(93, eps=1e-05, momentum=0.1, affine=True, track_running_stats=True)\n    (39): ReLU(inplace=True)\n    (40): Conv2d(93, 512, kernel_size=(3, 3), stride=(1, 1), padding=(1, 1))\n    (41): BatchNorm2d(512, eps=1e-05, momentum=0.1, affine=True, track_running_stats=True)\n    (42): ReLU(inplace=True)\n    (43): MaxPool2d(kernel_size=2, stride=2, padding=0, dilation=1, ceil_mode=False)\n  )\n  (avgpool): AdaptiveAvgPool2d(output_size=(7, 7))\n  (classifier): Sequential(\n    (0): Linear(in_features=25088, out_features=4096, bias=True)\n    (1): ReLU(inplace=True)\n    (2): Dropout(p=0.5, inplace=False)\n    (3): Linear(in_features=4096, out_features=4096, bias=True)\n    (4): ReLU(inplace=True)\n    (5): Dropout(p=0.5, inplace=False)\n    (6): Linear(in_features=4096, out_features=1000, bias=True)\n  )\n)\n\n\n(9945391172.0, 126347419)\n\n\n\n\nNew Pruner\n\nimport torch\nfrom torchvision.models import resnet18\nimport torch_pruning as tp\n\nmodel = resnet18(pretrained=True)\nexample_inputs = torch.randn(1, 3, 224, 224)\n\npruner = Pruner(model, \"False\", tp.importance.GroupNormImportance(p=2))\n\n\npruner.prune_model(30)\n\nResNet(\n  (conv1): Conv2d(3, 64, kernel_size=(7, 7), stride=(2, 2), padding=(3, 3), bias=False)\n  (bn1): BatchNorm2d(64, eps=1e-05, momentum=0.1, affine=True, track_running_stats=True)\n  (relu): ReLU(inplace=True)\n  (maxpool): MaxPool2d(kernel_size=3, stride=2, padding=1, dilation=1, ceil_mode=False)\n  (layer1): Sequential(\n    (0): BasicBlock(\n      (conv1): Conv2d(64, 64, kernel_size=(3, 3), stride=(1, 1), padding=(1, 1), bias=False)\n      (bn1): BatchNorm2d(64, eps=1e-05, momentum=0.1, affine=True, track_running_stats=True)\n      (relu): ReLU(inplace=True)\n      (conv2): Conv2d(64, 64, kernel_size=(3, 3), stride=(1, 1), padding=(1, 1), bias=False)\n      (bn2): BatchNorm2d(64, eps=1e-05, momentum=0.1, affine=True, track_running_stats=True)\n    )\n    (1): BasicBlock(\n      (conv1): Conv2d(64, 64, kernel_size=(3, 3), stride=(1, 1), padding=(1, 1), bias=False)\n      (bn1): BatchNorm2d(64, eps=1e-05, momentum=0.1, affine=True, track_running_stats=True)\n      (relu): ReLU(inplace=True)\n      (conv2): Conv2d(64, 64, kernel_size=(3, 3), stride=(1, 1), padding=(1, 1), bias=False)\n      (bn2): BatchNorm2d(64, eps=1e-05, momentum=0.1, affine=True, track_running_stats=True)\n    )\n  )\n  (layer2): Sequential(\n    (0): BasicBlock(\n      (conv1): Conv2d(64, 128, kernel_size=(3, 3), stride=(2, 2), padding=(1, 1), bias=False)\n      (bn1): BatchNorm2d(128, eps=1e-05, momentum=0.1, affine=True, track_running_stats=True)\n      (relu): ReLU(inplace=True)\n      (conv2): Conv2d(128, 128, kernel_size=(3, 3), stride=(1, 1), padding=(1, 1), bias=False)\n      (bn2): BatchNorm2d(128, eps=1e-05, momentum=0.1, affine=True, track_running_stats=True)\n      (downsample): Sequential(\n        (0): Conv2d(64, 128, kernel_size=(1, 1), stride=(2, 2), bias=False)\n        (1): BatchNorm2d(128, eps=1e-05, momentum=0.1, affine=True, track_running_stats=True)\n      )\n    )\n    (1): BasicBlock(\n      (conv1): Conv2d(128, 128, kernel_size=(3, 3), stride=(1, 1), padding=(1, 1), bias=False)\n      (bn1): BatchNorm2d(128, eps=1e-05, momentum=0.1, affine=True, track_running_stats=True)\n      (relu): ReLU(inplace=True)\n      (conv2): Conv2d(128, 128, kernel_size=(3, 3), stride=(1, 1), padding=(1, 1), bias=False)\n      (bn2): BatchNorm2d(128, eps=1e-05, momentum=0.1, affine=True, track_running_stats=True)\n    )\n  )\n  (layer3): Sequential(\n    (0): BasicBlock(\n      (conv1): Conv2d(128, 256, kernel_size=(3, 3), stride=(2, 2), padding=(1, 1), bias=False)\n      (bn1): BatchNorm2d(256, eps=1e-05, momentum=0.1, affine=True, track_running_stats=True)\n      (relu): ReLU(inplace=True)\n      (conv2): Conv2d(256, 256, kernel_size=(3, 3), stride=(1, 1), padding=(1, 1), bias=False)\n      (bn2): BatchNorm2d(256, eps=1e-05, momentum=0.1, affine=True, track_running_stats=True)\n      (downsample): Sequential(\n        (0): Conv2d(128, 256, kernel_size=(1, 1), stride=(2, 2), bias=False)\n        (1): BatchNorm2d(256, eps=1e-05, momentum=0.1, affine=True, track_running_stats=True)\n      )\n    )\n    (1): BasicBlock(\n      (conv1): Conv2d(256, 256, kernel_size=(3, 3), stride=(1, 1), padding=(1, 1), bias=False)\n      (bn1): BatchNorm2d(256, eps=1e-05, momentum=0.1, affine=True, track_running_stats=True)\n      (relu): ReLU(inplace=True)\n      (conv2): Conv2d(256, 256, kernel_size=(3, 3), stride=(1, 1), padding=(1, 1), bias=False)\n      (bn2): BatchNorm2d(256, eps=1e-05, momentum=0.1, affine=True, track_running_stats=True)\n    )\n  )\n  (layer4): Sequential(\n    (0): BasicBlock(\n      (conv1): Conv2d(256, 512, kernel_size=(3, 3), stride=(2, 2), padding=(1, 1), bias=False)\n      (bn1): BatchNorm2d(512, eps=1e-05, momentum=0.1, affine=True, track_running_stats=True)\n      (relu): ReLU(inplace=True)\n      (conv2): Conv2d(512, 512, kernel_size=(3, 3), stride=(1, 1), padding=(1, 1), bias=False)\n      (bn2): BatchNorm2d(512, eps=1e-05, momentum=0.1, affine=True, track_running_stats=True)\n      (downsample): Sequential(\n        (0): Conv2d(256, 512, kernel_size=(1, 1), stride=(2, 2), bias=False)\n        (1): BatchNorm2d(512, eps=1e-05, momentum=0.1, affine=True, track_running_stats=True)\n      )\n    )\n    (1): BasicBlock(\n      (conv1): Conv2d(512, 512, kernel_size=(3, 3), stride=(1, 1), padding=(1, 1), bias=False)\n      (bn1): BatchNorm2d(512, eps=1e-05, momentum=0.1, affine=True, track_running_stats=True)\n      (relu): ReLU(inplace=True)\n      (conv2): Conv2d(512, 512, kernel_size=(3, 3), stride=(1, 1), padding=(1, 1), bias=False)\n      (bn2): BatchNorm2d(512, eps=1e-05, momentum=0.1, affine=True, track_running_stats=True)\n    )\n  )\n  (avgpool): AdaptiveAvgPool2d(output_size=(1, 1))\n  (fc): Linear(in_features=512, out_features=1000, bias=True)\n)\ntensor([], dtype=torch.int64)\n'Conv2d' object has no attribute 'out_features'\nDimension out of range (expected to be in range of [-1, 0], but got 1)\nReLU(inplace=True)\nMaxPool2d(kernel_size=3, stride=2, padding=1, dilation=1, ceil_mode=False)\nSequential(\n  (0): BasicBlock(\n    (conv1): Conv2d(64, 64, kernel_size=(3, 3), stride=(1, 1), padding=(1, 1), bias=False)\n    (bn1): BatchNorm2d(64, eps=1e-05, momentum=0.1, affine=True, track_running_stats=True)\n    (relu): ReLU(inplace=True)\n    (conv2): Conv2d(64, 64, kernel_size=(3, 3), stride=(1, 1), padding=(1, 1), bias=False)\n    (bn2): BatchNorm2d(64, eps=1e-05, momentum=0.1, affine=True, track_running_stats=True)\n  )\n  (1): BasicBlock(\n    (conv1): Conv2d(64, 64, kernel_size=(3, 3), stride=(1, 1), padding=(1, 1), bias=False)\n    (bn1): BatchNorm2d(64, eps=1e-05, momentum=0.1, affine=True, track_running_stats=True)\n    (relu): ReLU(inplace=True)\n    (conv2): Conv2d(64, 64, kernel_size=(3, 3), stride=(1, 1), padding=(1, 1), bias=False)\n    (bn2): BatchNorm2d(64, eps=1e-05, momentum=0.1, affine=True, track_running_stats=True)\n  )\n)\nBasicBlock(\n  (conv1): Conv2d(64, 64, kernel_size=(3, 3), stride=(1, 1), padding=(1, 1), bias=False)\n  (bn1): BatchNorm2d(64, eps=1e-05, momentum=0.1, affine=True, track_running_stats=True)\n  (relu): ReLU(inplace=True)\n  (conv2): Conv2d(64, 64, kernel_size=(3, 3), stride=(1, 1), padding=(1, 1), bias=False)\n  (bn2): BatchNorm2d(64, eps=1e-05, momentum=0.1, affine=True, track_running_stats=True)\n)\ntensor([], dtype=torch.int64)\n'Conv2d' object has no attribute 'out_features'\nDimension out of range (expected to be in range of [-1, 0], but got 1)\nReLU(inplace=True)\ntensor([], dtype=torch.int64)\n'Conv2d' object has no attribute 'out_features'\nDimension out of range (expected to be in range of [-1, 0], but got 1)\nBasicBlock(\n  (conv1): Conv2d(64, 64, kernel_size=(3, 3), stride=(1, 1), padding=(1, 1), bias=False)\n  (bn1): BatchNorm2d(64, eps=1e-05, momentum=0.1, affine=True, track_running_stats=True)\n  (relu): ReLU(inplace=True)\n  (conv2): Conv2d(64, 64, kernel_size=(3, 3), stride=(1, 1), padding=(1, 1), bias=False)\n  (bn2): BatchNorm2d(64, eps=1e-05, momentum=0.1, affine=True, track_running_stats=True)\n)\ntensor([], dtype=torch.int64)\n'Conv2d' object has no attribute 'out_features'\nDimension out of range (expected to be in range of [-1, 0], but got 1)\nReLU(inplace=True)\ntensor([], dtype=torch.int64)\n'Conv2d' object has no attribute 'out_features'\nDimension out of range (expected to be in range of [-1, 0], but got 1)\nSequential(\n  (0): BasicBlock(\n    (conv1): Conv2d(64, 128, kernel_size=(3, 3), stride=(2, 2), padding=(1, 1), bias=False)\n    (bn1): BatchNorm2d(128, eps=1e-05, momentum=0.1, affine=True, track_running_stats=True)\n    (relu): ReLU(inplace=True)\n    (conv2): Conv2d(128, 128, kernel_size=(3, 3), stride=(1, 1), padding=(1, 1), bias=False)\n    (bn2): BatchNorm2d(128, eps=1e-05, momentum=0.1, affine=True, track_running_stats=True)\n    (downsample): Sequential(\n      (0): Conv2d(64, 128, kernel_size=(1, 1), stride=(2, 2), bias=False)\n      (1): BatchNorm2d(128, eps=1e-05, momentum=0.1, affine=True, track_running_stats=True)\n    )\n  )\n  (1): BasicBlock(\n    (conv1): Conv2d(128, 128, kernel_size=(3, 3), stride=(1, 1), padding=(1, 1), bias=False)\n    (bn1): BatchNorm2d(128, eps=1e-05, momentum=0.1, affine=True, track_running_stats=True)\n    (relu): ReLU(inplace=True)\n    (conv2): Conv2d(128, 128, kernel_size=(3, 3), stride=(1, 1), padding=(1, 1), bias=False)\n    (bn2): BatchNorm2d(128, eps=1e-05, momentum=0.1, affine=True, track_running_stats=True)\n  )\n)\nBasicBlock(\n  (conv1): Conv2d(64, 128, kernel_size=(3, 3), stride=(2, 2), padding=(1, 1), bias=False)\n  (bn1): BatchNorm2d(128, eps=1e-05, momentum=0.1, affine=True, track_running_stats=True)\n  (relu): ReLU(inplace=True)\n  (conv2): Conv2d(128, 128, kernel_size=(3, 3), stride=(1, 1), padding=(1, 1), bias=False)\n  (bn2): BatchNorm2d(128, eps=1e-05, momentum=0.1, affine=True, track_running_stats=True)\n  (downsample): Sequential(\n    (0): Conv2d(64, 128, kernel_size=(1, 1), stride=(2, 2), bias=False)\n    (1): BatchNorm2d(128, eps=1e-05, momentum=0.1, affine=True, track_running_stats=True)\n  )\n)\ntensor([], dtype=torch.int64)\n'Conv2d' object has no attribute 'out_features'\nDimension out of range (expected to be in range of [-1, 0], but got 1)\nReLU(inplace=True)\ntensor([], dtype=torch.int64)\n'Conv2d' object has no attribute 'out_features'\nDimension out of range (expected to be in range of [-1, 0], but got 1)\nSequential(\n  (0): Conv2d(64, 128, kernel_size=(1, 1), stride=(2, 2), bias=False)\n  (1): BatchNorm2d(128, eps=1e-05, momentum=0.1, affine=True, track_running_stats=True)\n)\ntensor([], dtype=torch.int64)\n'Conv2d' object has no attribute 'out_features'\nDimension out of range (expected to be in range of [-1, 0], but got 1)\nBasicBlock(\n  (conv1): Conv2d(128, 128, kernel_size=(3, 3), stride=(1, 1), padding=(1, 1), bias=False)\n  (bn1): BatchNorm2d(128, eps=1e-05, momentum=0.1, affine=True, track_running_stats=True)\n  (relu): ReLU(inplace=True)\n  (conv2): Conv2d(128, 128, kernel_size=(3, 3), stride=(1, 1), padding=(1, 1), bias=False)\n  (bn2): BatchNorm2d(128, eps=1e-05, momentum=0.1, affine=True, track_running_stats=True)\n)\ntensor([], dtype=torch.int64)\n'Conv2d' object has no attribute 'out_features'\nDimension out of range (expected to be in range of [-1, 0], but got 1)\nReLU(inplace=True)\ntensor([], dtype=torch.int64)\n'Conv2d' object has no attribute 'out_features'\nDimension out of range (expected to be in range of [-1, 0], but got 1)\nSequential(\n  (0): BasicBlock(\n    (conv1): Conv2d(128, 256, kernel_size=(3, 3), stride=(2, 2), padding=(1, 1), bias=False)\n    (bn1): BatchNorm2d(256, eps=1e-05, momentum=0.1, affine=True, track_running_stats=True)\n    (relu): ReLU(inplace=True)\n    (conv2): Conv2d(256, 256, kernel_size=(3, 3), stride=(1, 1), padding=(1, 1), bias=False)\n    (bn2): BatchNorm2d(256, eps=1e-05, momentum=0.1, affine=True, track_running_stats=True)\n    (downsample): Sequential(\n      (0): Conv2d(128, 256, kernel_size=(1, 1), stride=(2, 2), bias=False)\n      (1): BatchNorm2d(256, eps=1e-05, momentum=0.1, affine=True, track_running_stats=True)\n    )\n  )\n  (1): BasicBlock(\n    (conv1): Conv2d(256, 256, kernel_size=(3, 3), stride=(1, 1), padding=(1, 1), bias=False)\n    (bn1): BatchNorm2d(256, eps=1e-05, momentum=0.1, affine=True, track_running_stats=True)\n    (relu): ReLU(inplace=True)\n    (conv2): Conv2d(256, 256, kernel_size=(3, 3), stride=(1, 1), padding=(1, 1), bias=False)\n    (bn2): BatchNorm2d(256, eps=1e-05, momentum=0.1, affine=True, track_running_stats=True)\n  )\n)\nBasicBlock(\n  (conv1): Conv2d(128, 256, kernel_size=(3, 3), stride=(2, 2), padding=(1, 1), bias=False)\n  (bn1): BatchNorm2d(256, eps=1e-05, momentum=0.1, affine=True, track_running_stats=True)\n  (relu): ReLU(inplace=True)\n  (conv2): Conv2d(256, 256, kernel_size=(3, 3), stride=(1, 1), padding=(1, 1), bias=False)\n  (bn2): BatchNorm2d(256, eps=1e-05, momentum=0.1, affine=True, track_running_stats=True)\n  (downsample): Sequential(\n    (0): Conv2d(128, 256, kernel_size=(1, 1), stride=(2, 2), bias=False)\n    (1): BatchNorm2d(256, eps=1e-05, momentum=0.1, affine=True, track_running_stats=True)\n  )\n)\ntensor([], dtype=torch.int64)\n'Conv2d' object has no attribute 'out_features'\nDimension out of range (expected to be in range of [-1, 0], but got 1)\nReLU(inplace=True)\ntensor([], dtype=torch.int64)\n'Conv2d' object has no attribute 'out_features'\nDimension out of range (expected to be in range of [-1, 0], but got 1)\nSequential(\n  (0): Conv2d(128, 256, kernel_size=(1, 1), stride=(2, 2), bias=False)\n  (1): BatchNorm2d(256, eps=1e-05, momentum=0.1, affine=True, track_running_stats=True)\n)\ntensor([], dtype=torch.int64)\n'Conv2d' object has no attribute 'out_features'\nDimension out of range (expected to be in range of [-1, 0], but got 1)\nBasicBlock(\n  (conv1): Conv2d(256, 256, kernel_size=(3, 3), stride=(1, 1), padding=(1, 1), bias=False)\n  (bn1): BatchNorm2d(256, eps=1e-05, momentum=0.1, affine=True, track_running_stats=True)\n  (relu): ReLU(inplace=True)\n  (conv2): Conv2d(256, 256, kernel_size=(3, 3), stride=(1, 1), padding=(1, 1), bias=False)\n  (bn2): BatchNorm2d(256, eps=1e-05, momentum=0.1, affine=True, track_running_stats=True)\n)\ntensor([], dtype=torch.int64)\n'Conv2d' object has no attribute 'out_features'\nDimension out of range (expected to be in range of [-1, 0], but got 1)\nReLU(inplace=True)\ntensor([], dtype=torch.int64)\n'Conv2d' object has no attribute 'out_features'\nDimension out of range (expected to be in range of [-1, 0], but got 1)\nSequential(\n  (0): BasicBlock(\n    (conv1): Conv2d(256, 512, kernel_size=(3, 3), stride=(2, 2), padding=(1, 1), bias=False)\n    (bn1): BatchNorm2d(512, eps=1e-05, momentum=0.1, affine=True, track_running_stats=True)\n    (relu): ReLU(inplace=True)\n    (conv2): Conv2d(512, 512, kernel_size=(3, 3), stride=(1, 1), padding=(1, 1), bias=False)\n    (bn2): BatchNorm2d(512, eps=1e-05, momentum=0.1, affine=True, track_running_stats=True)\n    (downsample): Sequential(\n      (0): Conv2d(256, 512, kernel_size=(1, 1), stride=(2, 2), bias=False)\n      (1): BatchNorm2d(512, eps=1e-05, momentum=0.1, affine=True, track_running_stats=True)\n    )\n  )\n  (1): BasicBlock(\n    (conv1): Conv2d(512, 512, kernel_size=(3, 3), stride=(1, 1), padding=(1, 1), bias=False)\n    (bn1): BatchNorm2d(512, eps=1e-05, momentum=0.1, affine=True, track_running_stats=True)\n    (relu): ReLU(inplace=True)\n    (conv2): Conv2d(512, 512, kernel_size=(3, 3), stride=(1, 1), padding=(1, 1), bias=False)\n    (bn2): BatchNorm2d(512, eps=1e-05, momentum=0.1, affine=True, track_running_stats=True)\n  )\n)\nBasicBlock(\n  (conv1): Conv2d(256, 512, kernel_size=(3, 3), stride=(2, 2), padding=(1, 1), bias=False)\n  (bn1): BatchNorm2d(512, eps=1e-05, momentum=0.1, affine=True, track_running_stats=True)\n  (relu): ReLU(inplace=True)\n  (conv2): Conv2d(512, 512, kernel_size=(3, 3), stride=(1, 1), padding=(1, 1), bias=False)\n  (bn2): BatchNorm2d(512, eps=1e-05, momentum=0.1, affine=True, track_running_stats=True)\n  (downsample): Sequential(\n    (0): Conv2d(256, 512, kernel_size=(1, 1), stride=(2, 2), bias=False)\n    (1): BatchNorm2d(512, eps=1e-05, momentum=0.1, affine=True, track_running_stats=True)\n  )\n)\ntensor([], dtype=torch.int64)\n'Conv2d' object has no attribute 'out_features'\nDimension out of range (expected to be in range of [-1, 0], but got 1)\nReLU(inplace=True)\ntensor([], dtype=torch.int64)\n'Conv2d' object has no attribute 'out_features'\nDimension out of range (expected to be in range of [-1, 0], but got 1)\nSequential(\n  (0): Conv2d(256, 512, kernel_size=(1, 1), stride=(2, 2), bias=False)\n  (1): BatchNorm2d(512, eps=1e-05, momentum=0.1, affine=True, track_running_stats=True)\n)\ntensor([], dtype=torch.int64)\n'Conv2d' object has no attribute 'out_features'\nDimension out of range (expected to be in range of [-1, 0], but got 1)\nBasicBlock(\n  (conv1): Conv2d(512, 512, kernel_size=(3, 3), stride=(1, 1), padding=(1, 1), bias=False)\n  (bn1): BatchNorm2d(512, eps=1e-05, momentum=0.1, affine=True, track_running_stats=True)\n  (relu): ReLU(inplace=True)\n  (conv2): Conv2d(512, 512, kernel_size=(3, 3), stride=(1, 1), padding=(1, 1), bias=False)\n  (bn2): BatchNorm2d(512, eps=1e-05, momentum=0.1, affine=True, track_running_stats=True)\n)\ntensor([], dtype=torch.int64)\n'Conv2d' object has no attribute 'out_features'\nDimension out of range (expected to be in range of [-1, 0], but got 1)\nReLU(inplace=True)\ntensor([], dtype=torch.int64)\n'Conv2d' object has no attribute 'out_features'\nDimension out of range (expected to be in range of [-1, 0], but got 1)\nAdaptiveAvgPool2d(output_size=(1, 1))\ntensor([], dtype=torch.int64)\n\n\n\npruner.model\n\nResNet(\n  (conv1): Conv2d(3, 64, kernel_size=(7, 7), stride=(2, 2), padding=(3, 3), bias=False)\n  (bn1): BatchNorm2d(64, eps=1e-05, momentum=0.1, affine=True, track_running_stats=True)\n  (relu): ReLU(inplace=True)\n  (maxpool): MaxPool2d(kernel_size=3, stride=2, padding=1, dilation=1, ceil_mode=False)\n  (layer1): Sequential(\n    (0): BasicBlock(\n      (conv1): Conv2d(64, 64, kernel_size=(3, 3), stride=(1, 1), padding=(1, 1), bias=False)\n      (bn1): BatchNorm2d(64, eps=1e-05, momentum=0.1, affine=True, track_running_stats=True)\n      (relu): ReLU(inplace=True)\n      (conv2): Conv2d(64, 64, kernel_size=(3, 3), stride=(1, 1), padding=(1, 1), bias=False)\n      (bn2): BatchNorm2d(64, eps=1e-05, momentum=0.1, affine=True, track_running_stats=True)\n    )\n    (1): BasicBlock(\n      (conv1): Conv2d(64, 64, kernel_size=(3, 3), stride=(1, 1), padding=(1, 1), bias=False)\n      (bn1): BatchNorm2d(64, eps=1e-05, momentum=0.1, affine=True, track_running_stats=True)\n      (relu): ReLU(inplace=True)\n      (conv2): Conv2d(64, 64, kernel_size=(3, 3), stride=(1, 1), padding=(1, 1), bias=False)\n      (bn2): BatchNorm2d(64, eps=1e-05, momentum=0.1, affine=True, track_running_stats=True)\n    )\n  )\n  (layer2): Sequential(\n    (0): BasicBlock(\n      (conv1): Conv2d(64, 128, kernel_size=(3, 3), stride=(2, 2), padding=(1, 1), bias=False)\n      (bn1): BatchNorm2d(128, eps=1e-05, momentum=0.1, affine=True, track_running_stats=True)\n      (relu): ReLU(inplace=True)\n      (conv2): Conv2d(128, 128, kernel_size=(3, 3), stride=(1, 1), padding=(1, 1), bias=False)\n      (bn2): BatchNorm2d(128, eps=1e-05, momentum=0.1, affine=True, track_running_stats=True)\n      (downsample): Sequential(\n        (0): Conv2d(64, 128, kernel_size=(1, 1), stride=(2, 2), bias=False)\n        (1): BatchNorm2d(128, eps=1e-05, momentum=0.1, affine=True, track_running_stats=True)\n      )\n    )\n    (1): BasicBlock(\n      (conv1): Conv2d(128, 128, kernel_size=(3, 3), stride=(1, 1), padding=(1, 1), bias=False)\n      (bn1): BatchNorm2d(128, eps=1e-05, momentum=0.1, affine=True, track_running_stats=True)\n      (relu): ReLU(inplace=True)\n      (conv2): Conv2d(128, 128, kernel_size=(3, 3), stride=(1, 1), padding=(1, 1), bias=False)\n      (bn2): BatchNorm2d(128, eps=1e-05, momentum=0.1, affine=True, track_running_stats=True)\n    )\n  )\n  (layer3): Sequential(\n    (0): BasicBlock(\n      (conv1): Conv2d(128, 256, kernel_size=(3, 3), stride=(2, 2), padding=(1, 1), bias=False)\n      (bn1): BatchNorm2d(256, eps=1e-05, momentum=0.1, affine=True, track_running_stats=True)\n      (relu): ReLU(inplace=True)\n      (conv2): Conv2d(256, 256, kernel_size=(3, 3), stride=(1, 1), padding=(1, 1), bias=False)\n      (bn2): BatchNorm2d(256, eps=1e-05, momentum=0.1, affine=True, track_running_stats=True)\n      (downsample): Sequential(\n        (0): Conv2d(128, 256, kernel_size=(1, 1), stride=(2, 2), bias=False)\n        (1): BatchNorm2d(256, eps=1e-05, momentum=0.1, affine=True, track_running_stats=True)\n      )\n    )\n    (1): BasicBlock(\n      (conv1): Conv2d(256, 256, kernel_size=(3, 3), stride=(1, 1), padding=(1, 1), bias=False)\n      (bn1): BatchNorm2d(256, eps=1e-05, momentum=0.1, affine=True, track_running_stats=True)\n      (relu): ReLU(inplace=True)\n      (conv2): Conv2d(256, 256, kernel_size=(3, 3), stride=(1, 1), padding=(1, 1), bias=False)\n      (bn2): BatchNorm2d(256, eps=1e-05, momentum=0.1, affine=True, track_running_stats=True)\n    )\n  )\n  (layer4): Sequential(\n    (0): BasicBlock(\n      (conv1): Conv2d(256, 512, kernel_size=(3, 3), stride=(2, 2), padding=(1, 1), bias=False)\n      (bn1): BatchNorm2d(512, eps=1e-05, momentum=0.1, affine=True, track_running_stats=True)\n      (relu): ReLU(inplace=True)\n      (conv2): Conv2d(512, 512, kernel_size=(3, 3), stride=(1, 1), padding=(1, 1), bias=False)\n      (bn2): BatchNorm2d(512, eps=1e-05, momentum=0.1, affine=True, track_running_stats=True)\n      (downsample): Sequential(\n        (0): Conv2d(256, 512, kernel_size=(1, 1), stride=(2, 2), bias=False)\n        (1): BatchNorm2d(512, eps=1e-05, momentum=0.1, affine=True, track_running_stats=True)\n      )\n    )\n    (1): BasicBlock(\n      (conv1): Conv2d(512, 512, kernel_size=(3, 3), stride=(1, 1), padding=(1, 1), bias=False)\n      (bn1): BatchNorm2d(512, eps=1e-05, momentum=0.1, affine=True, track_running_stats=True)\n      (relu): ReLU(inplace=True)\n      (conv2): Conv2d(512, 512, kernel_size=(3, 3), stride=(1, 1), padding=(1, 1), bias=False)\n      (bn2): BatchNorm2d(512, eps=1e-05, momentum=0.1, affine=True, track_running_stats=True)\n    )\n  )\n  (avgpool): AdaptiveAvgPool2d(output_size=(1, 1))\n  (fc): Linear(in_features=512, out_features=1000, bias=True)\n)\n\n\n\nimport torch\nfrom torchvision.models import resnet18\nimport torch_pruning as tp\n\nmodel = resnet18(pretrained=True)\nexample_inputs = torch.randn(1, 3, 224, 224)\n\n# 1. Importance criterion\nimp = tp.importance.GroupNormImportance(p=2) # or GroupTaylorImportance(), GroupHessianImportance(), etc.\n\n# 2. Initialize a pruner with the model
…
3, 3), stride=(1, 1), padding=(1, 1), bias=False)), len(idxs)=256\n--------------------------------\n\n487202536.0\n487202536.0\n487202536.0\n487202536.0\n487202536.0\n487202536.0\n487202536.0\n487202536.0\n487202536.0\n487202536.0\n\n\n\n#base_macs, base_nparams = tp.utils.count_ops_and_params(model, example_inputs)\npruner.step()\nmacs, nparams = tp.utils.count_ops_and_params(model, example_inputs)\nprint(macs)\nprint(nparams)\n#print(f\"MACs: {base_macs/1e9} G -&gt; {macs/1e9} G, #Params: {base_nparams/1e6} M -&gt; {nparams/1e6} M\")\n\n487202536.0\n3055880\n\n\n\nmodel\n\nResNet(\n  (conv1): Conv2d(3, 32, kernel_size=(7, 7), stride=(2, 2), padding=(3, 3), bias=False)\n  (bn1): BatchNorm2d(32, eps=1e-05, momentum=0.1, affine=True, track_running_stats=True)\n  (relu): ReLU(inplace=True)\n  (maxpool): MaxPool2d(kernel_size=3, stride=2, padding=1, dilation=1, ceil_mode=False)\n  (layer1): Sequential(\n    (0): BasicBlock(\n      (conv1): Conv2d(32, 32, kernel_size=(3, 3), stride=(1, 1), padding=(1, 1), bias=False)\n      (bn1): BatchNorm2d(32, eps=1e-05, momentum=0.1, affine=True, track_running_stats=True)\n      (relu): ReLU(inplace=True)\n      (conv2): Conv2d(32, 32, kernel_size=(3, 3), stride=(1, 1), padding=(1, 1), bias=False)\n      (bn2): BatchNorm2d(32, eps=1e-05, momentum=0.1, affine=True, track_running_stats=True)\n    )\n    (1): BasicBlock(\n      (conv1): Conv2d(32, 32, kernel_size=(3, 3), stride=(1, 1), padding=(1, 1), bias=False)\n      (bn1): BatchNorm2d(32, eps=1e-05, momentum=0.1, affine=True, track_running_stats=True)\n      (relu): ReLU(inplace=True)\n      (conv2): Conv2d(32, 32, kernel_size=(3, 3), stride=(1, 1), padding=(1, 1), bias=False)\n      (bn2): BatchNorm2d(32, eps=1e-05, momentum=0.1, affine=True, track_running_stats=True)\n    )\n  )\n  (layer2): Sequential(\n    (0): BasicBlock(\n      (conv1): Conv2d(32, 64, kernel_size=(3, 3), stride=(2, 2), padding=(1, 1), bias=False)\n      (bn1): BatchNorm2d(64, eps=1e-05, momentum=0.1, affine=True, track_running_stats=True)\n      (relu): ReLU(inplace=True)\n      (conv2): Conv2d(64, 64, kernel_size=(3, 3), stride=(1, 1), padding=(1, 1), bias=False)\n      (bn2): BatchNorm2d(64, eps=1e-05, momentum=0.1, affine=True, track_running_stats=True)\n      (downsample): Sequential(\n        (0): Conv2d(32, 64, kernel_size=(1, 1), stride=(2, 2), bias=False)\n        (1): BatchNorm2d(64, eps=1e-05, momentum=0.1, affine=True, track_running_stats=True)\n      )\n    )\n    (1): BasicBlock(\n      (conv1): Conv2d(64, 64, kernel_size=(3, 3), stride=(1, 1), padding=(1, 1), bias=False)\n      (bn1): BatchNorm2d(64, eps=1e-05, momentum=0.1, affine=True, track_running_stats=True)\n      (relu): ReLU(inplace=True)\n      (conv2): Conv2d(64, 64, kernel_size=(3, 3), stride=(1, 1), padding=(1, 1), bias=False)\n      (bn2): BatchNorm2d(64, eps=1e-05, momentum=0.1, affine=True, track_running_stats=True)\n    )\n  )\n  (layer3): Sequential(\n    (0): BasicBlock(\n      (conv1): Conv2d(64, 128, kernel_size=(3, 3), stride=(2, 2), padding=(1, 1), bias=False)\n      (bn1): BatchNorm2d(128, eps=1e-05, momentum=0.1, affine=True, track_running_stats=True)\n      (relu): ReLU(inplace=True)\n      (conv2): Conv2d(128, 128, kernel_size=(3, 3), stride=(1, 1), padding=(1, 1), bias=False)\n      (bn2): BatchNorm2d(128, eps=1e-05, momentum=0.1, affine=True, track_running_stats=True)\n      (downsample): Sequential(\n        (0): Conv2d(64, 128, kernel_size=(1, 1), stride=(2, 2), bias=False)\n        (1): BatchNorm2d(128, eps=1e-05, momentum=0.1, affine=True, track_running_stats=True)\n      )\n    )\n    (1): BasicBlock(\n      (conv1): Conv2d(128, 128, kernel_size=(3, 3), stride=(1, 1), padding=(1, 1), bias=False)\n      (bn1): BatchNorm2d(128, eps=1e-05, momentum=0.1, affine=True, track_running_stats=True)\n      (relu): ReLU(inplace=True)\n      (conv2): Conv2d(128, 128, kernel_size=(3, 3), stride=(1, 1), padding=(1, 1), bias=False)\n      (bn2): BatchNorm2d(128, eps=1e-05, momentum=0.1, affine=True, track_running_stats=True)\n    )\n  )\n  (layer4): Sequential(\n    (0): BasicBlock(\n      (conv1): Conv2d(128, 256, kernel_size=(3, 3), stride=(2, 2), padding=(1, 1), bias=False)\n      (bn1): BatchNorm2d(256, eps=1e-05, momentum=0.1, affine=True, track_running_stats=True)\n      (relu): ReLU(inplace=True)\n      (conv2): Conv2d(256, 256, kernel_size=(3, 3), stride=(1, 1), padding=(1, 1), bias=False)\n      (bn2): BatchNorm2d(256, eps=1e-05, momentum=0.1, affine=True, track_running_stats=True)\n      (downsample): Sequential(\n        (0): Conv2d(128, 256, kernel_size=(1, 1), stride=(2, 2), bias=False)\n        (1): BatchNorm2d(256, eps=1e-05, momentum=0.1, affine=True, track_running_stats=True)\n      )\n    )\n    (1): BasicBlock(\n      (conv1): Conv2d(256, 256, kernel_size=(3, 3), stride=(1, 1), padding=(1, 1), bias=False)\n      (bn1): BatchNorm2d(256, eps=1e-05, momentum=0.1, affine=True, track_running_stats=True)\n      (relu): ReLU(inplace=True)\n      (conv2): Conv2d(256, 256, kernel_size=(3, 3), stride=(1, 1), padding=(1, 1), bias=False)\n      (bn2): BatchNorm2d(256, eps=1e-05, momentum=0.1, affine=True, track_running_stats=True)\n    )\n  )\n  (avgpool): AdaptiveAvgPool2d(output_size=(1, 1))\n  (fc): Linear(in_features=256, out_features=1000, bias=True)\n)\n\n\n\nfor group in pruner.step(interactive=True): # Warning: groups must be handled sequentially. Do not keep them as a list.\n    print(group) \n    # do whatever you like with the group \n    dep, idxs = group[0] # get the idxs\n    target_module = dep.target.module # get the root module\n    pruning_fn = dep.handler # get the pruning function\n
…
    "text": "PruneCallback\n\n PruneCallback (sparsity:int, context:str, criteria:Callable,\n                schedule:Callable,\n                model:torch.nn.modules.module.Module=None,\n                round_to:int=None,\n                layer_type:torch.nn.modules.module.Module=&lt;class\n                'torch.nn.modules.conv.Conv2d'&gt;)\n\nBasic class handling tweaks of the training loop by changing a Learner in various events",
    "crumbs": [
      "Contact Me",
      "Prune",
      "Prune Callback"
    ]
  },
  {
    "objectID": "prune/pruner.html",
    "href": "prune/pruner.html",
    "title": "Pruner",
    "section": "",
    "text": "source\n\nPruner.prune_model\n\n Pruner.prune_model (sparsity, round_to=None)\n\nLet’s try the Pruner with a VGG16 model\n\nmodel = resnet18(); model\n\nResNet(\n  (conv1): Conv2d(3, 64, kernel_size=(7, 7), stride=(2, 2), padding=(3, 3), bias=False)\n  (bn1): BatchNorm2d(64, eps=1e-05, momentum=0.1, affine=True, track_running_stats=True)\n  (relu): ReLU(inplace=True)\n  (maxpool): MaxPool2d(kernel_size=3, stride=2, padding=1, dilation=1, ceil_mode=False)\n  (layer1): Sequential(\n    (0): BasicBlock(\n      (conv1): Conv2d(64, 64, kernel_size=(3, 3), stride=(1, 1), padding=(1, 1), bias=False)\n      (bn1): BatchNorm2d(64, eps=1e-05, momentum=0.1, affine=True, track_running_stats=True)\n      (relu): ReLU(inplace=True)\n      (conv2): Conv2d(64, 64, kernel_size=(3, 3), stride=(1, 1), padding=(1, 1), bias=False)\n      (bn2): BatchNorm2d(64, eps=1e-05, momentum=0.1, affine=True, track_running_stats=True)\n    )\n    (1): BasicBlock(\n      (conv1): Conv2d(64, 64, kernel_size=(3, 3), stride=(1, 1), padding=(1, 1), bias=False)\n      (bn1): BatchNorm2d(64, eps=1e-05, momentum=0.1, affine=True, track_running_stats=True)\n      (relu): ReLU(inplace=True)\n      (conv2): Conv2d(64, 64, kernel_size=(3, 3), stride=(1, 1), padding=(1, 1), bias=False)\n      (bn2): BatchNorm2d(64, eps=1e-05, momentum=0.1, affine=True, track_running_stats=True)\n    )\n  )\n  (layer2): Sequential(\n    (0): BasicBlock(\n      (conv1): Conv2d(64, 128, kernel_size=(3, 3), stride=(2, 2), padding=(1, 1), bias=False)\n      (bn1): BatchNorm2d(128, eps=1e-05, momentum=0.1, affine=True, track_running_stats=True)\n      (relu): ReLU(inplace=True)\n      (conv2): Conv2d(128, 128, kernel_size=(3, 3), stride=(1, 1), padding=(1, 1), bias=False)\n      (bn2): BatchNorm2d(128, eps=1e-05, momentum=0.1, affine=True, track_running_stats=True)\n      (downsample): Sequential(\n        (0): Conv2d(64, 128, kernel_size=(1, 1), stride=(2, 2), bias=False)\n        (1): BatchNorm2d(128, eps=1e-05, momentum=0.1, affine=True, track_running_stats=True)\n      )\n    )\n    (1): BasicBlock(\n      (conv1): Conv2d(128, 128, kernel_size=(3, 3), stride=(1, 1), padding=(1, 1), bias=False)\n      (bn1): BatchNorm2d(128, eps=1e-05, momentum=0.1, affine=True, track_running_stats=True)\n      (relu): ReLU(inplace=True)\n      (conv2): Conv2d(128, 128, kernel_size=(3, 3), stride=(1, 1), padding=(1, 1), bias=False)\n      (bn2): BatchNorm2d(128, eps=1e-05, momentum=0.1, affine=True, track_running_stats=True)\n    )\n  )\n  (layer3): Sequential(\n    (0): BasicBlock(\n      (conv1): Conv2d(128, 256, kernel_size=(3, 3), stride=(2, 2), padding=(1, 1), bias=False)\n      (bn1): BatchNorm2d(256, eps=1e-05, momentum=0.1, affine=True, track_running_stats=True)\n      (relu): ReLU(inplace=True)\n      (conv2): Conv2d(256, 256, kernel_size=(3, 3), stride=(1, 1), padding=(1, 1), bias=False)\n      (bn2): BatchNorm2d(256, eps=1e-05, momentum=0.1, affine=True, track_running_stats=True)\n      (downsample): Sequential(\n        (0): Conv2d(128, 256, kernel_size=(1, 1), stride=(2, 2), bias=False)\n        (1): BatchNorm2d(256, eps=1e-05, momentum=0.1, affine=True, track_running_stats=True)\n      )\n    )\n    (1): BasicBlock(\n      (conv1): Conv2d(256, 256, kernel_size=(3, 3), stride=(1, 1), padding=(1, 1), bias=False)\n      (bn1): BatchNorm2d(256, eps=1e-05, momentum=0.1, affine=True, track_running_stats=True)\n      (relu): ReLU(inplace=True)\n      (conv2): Conv2d(256, 256, kernel_size=(3, 3), stride=(1, 1), padding=(1, 1), bias=False)\n      (bn2): BatchNorm2d(256, eps=1e-05, momentum=0.1, affine=True, track_running_stats=True)\n    )\n  )\n  (layer4): Sequential(\n    (0): BasicBlock(\n      (conv1): Conv2d(256, 512, kernel_size=(3, 3), stride=(2, 2), padding=(1, 1), bias=False)\n      (bn1): BatchNorm2d(512, eps=1e-05, momentum=0.1, affine=True, track_running_stats=True)\n      (relu): ReLU(inplace=True)\n      (conv2): Conv2d(512, 512, kernel_size=(3, 3), stride=(1, 1), padding=(1, 1), bias=False)\n      (bn2): BatchNorm2d(512, eps=1e-05, momentum=0.1, affine=True, track_running_stats=True)\n      (downsample): Sequential(\n        (0): Conv2d(256, 512, kernel_size=(1, 1), stride=(2, 2), bias=False)\n        (1): BatchNorm2d(512, eps=1e-05, momentum=0.1, affine=True, track_running_stats=True)\n      )\n    )\n    (1): BasicBlock(\n      (conv1): Conv2d(512, 512, kernel_size=(3, 3), stride=(1, 1), padding=(1, 1), bias=False)\n      (bn1): BatchNorm2d(512, eps=1e-05, momentum=0.1, affine=True, track_running_stats=True)\n      (relu): ReLU(inplace=True)\n      (conv2): Conv2d(512, 512, kernel_size=(3, 3), stride=(1, 1), padding=(1, 1), bias=False)\n      (bn2): BatchNorm2d(512, eps=1e-05, momentum=0.1, affine=True, track_running_stats=True)\n    )\n  )\n  (avgpool): AdaptiveAvgPool2d(output_size=(1, 1))\n  (fc): Linear(in_features=512, out_features=1000, bias=True)\n)\n\n\nThe Prunercan either remove filters based on local criteria (i.e. each layer will be trimmed of the same % of filters)\n\npruner = Pruner(model, 'local', large_final, layer_type=[nn.Conv2d])\npruner.prune_model(30)\nprint(model)\n\nResNet(\n  (conv1): Conv2d(3, 44, kernel_size=(7, 7), stride=(2, 2), padding=(3, 3), bias=False)\n  (bn1): BatchNorm2d(44, eps=1e-05, momentum=0.1, affine=True, track_running_stats=True)\n  (relu): ReLU(inplace=True)\n  (maxpool): MaxPool2d(kernel_size=3, stride=2, padding=1, dilation=1, ceil_mode=False)\n  (layer1): Sequential(\n    (0): BasicBlock(\n      (conv1): Conv2d(44, 44, kernel_size=(3, 3), stride=(1, 1), padding=(1, 1), bias=False)\n      (bn1): BatchNorm2d(44, eps=1e-05, momentum=0.1, affine=True, track_running_stats=True)\n      (relu): ReLU(inplace=True)\n      (conv2): Conv2d(44, 44, kernel_size=(3, 3), stride=(1, 1), padding=(1, 1), bias=False)\n      (bn2): BatchNorm2d(44, eps=1e-05, momentum=0.1, affine=True, track_running_stats=True)\n    )\n    (1): BasicBlock(\n      (conv1): Conv2d(44, 44, kernel_size=(3, 3), stride=(1, 1), padding=(1, 1), bias=False)\n      (bn1): BatchNorm2d(44, eps=1e-05, momentum=0.1, affine=True, track_running_stats=True)\n      (relu): ReLU(inplace=True)\n      (conv2): Conv2d(44, 44, kernel_size=(3, 3), stride=(1, 1), padding=(1, 1), bias=False)\n      (bn2): BatchNorm2d(44, eps=1e-05, momentum=0.1, affine=True, track_running_stats=True)\n    )\n  )\n  (layer2): Sequential(\n    (0): BasicBlock(\n      (conv1): Conv2d(44, 89, kernel_size=(3, 3), stride=(2, 2), padding=(1, 1), bias=False)\n      (bn1): BatchNorm2d(89, eps=1e-05, momentum=0.1, affine=True, track_running_stats=True)\n      (relu): ReLU(inplace=True)\n      (conv2): Conv2d(89, 89, kernel_size=(3, 3), stride=(1, 1), padding=(1, 1), bias=False)\n      (bn2): BatchNorm2d(89, eps=1e-05, momentum=0.1, affine=True, track_running_stats=True)\n      (downsample): Sequential(\n        (0): Conv2d(44, 89, kernel_size=(1, 1), stride=(2, 2), bias=False)\n        (1): BatchNorm2d(89, eps=1e-05, momentum=0.1, affine=True, track_running_stats=True)\n      )\n    )\n    (1): BasicBlock(\n      (conv1): Conv2d(89, 89, kernel_size=(3, 3), stride=(1, 1), padding=(1, 1), bias=False)\n      (bn1): BatchNorm2d(89, eps=1e-05, momentum=0.1, affine=True, track_running_stats=True)\n      (relu): ReLU(inplace=True)\n      (conv2): Conv2d(89, 89, kernel_size=(3, 3), stride=(1, 1), padding=(1, 1), bias=False)\n      (bn2): BatchNorm2d(89, eps=1e-05, momentum=0.1, affine=True, track_running_stats=True)\n    )\n  )\n  (layer3): Sequential(\n    (0): BasicBlock(\n      (conv1): Conv2d(89, 179, kernel_size=(3, 3), stride=(2, 2), padding=(1, 1), bias=False)\n      (bn1): BatchNorm2d(179, eps=1e-05, momentum=0.1, affine=True, track_running_stats=True)\n      (relu): ReLU(inplace=True)\n      (conv2): Conv2d(179, 179, kernel_size=(3, 3), stride=(1, 1), padding=(1, 1), bias=False)\n      (bn2): BatchNorm2d(179, eps=1e-05, momentum=0.1, affine=True, track_running_stats=True)\n      (downsample): Sequential(\n        (0): Conv2d(89, 179, kernel_size=(1, 1), stride=(2, 2), bias=False)\n        (1): BatchNorm2d(179, eps=1e-05, momentum=0.1, affine=True, track_running_stats=True)\n      )\n    )\n    (1): BasicBlock(\n      (conv1): Conv2d(179, 179, kernel_size=(3, 3), stride=(1, 1), padding=(1, 1), bias=False)\n      (bn1): BatchNorm2d(179, eps=1e-05, momentum=0.1, affine=True, track_running_stats=True)\n      (relu): ReLU(inplace=True)\n      (conv2): Conv2d(179, 179, kernel_size=(3, 3), stride=(1, 1), padding=(1, 1), bias=False)\n      (bn2): BatchNorm2d(179, eps=1e-05, momentum=0.1, affine=True, track_running_stats=True)\n    )\n  )\n  (layer4): Sequential(\n    (0): BasicBlock(\n      (conv1): Conv2d(179, 358, kernel_size=(3, 3), stride=(2, 2), padding=(1, 1), bias=False)\n      (bn1): BatchNorm2d(358, eps=1e-05, momentum=0.1, affine=True, track_running_stats=True)\n      (relu): ReLU(inplace=True)\n      (conv2): Conv2d(358, 358, kernel_size=(3, 3), stride=(1, 1), padding=(1, 1), bias=False)\n      (bn2): BatchNorm2d(358, eps=1e-05, momentum=0.1, affine=True, track_running_stats=True)\n      (downsample): Sequential(\n        (0): Conv2d(179, 358, kernel_size=(1, 1), stride=(2, 2), bias=False)\n        (1): BatchNorm2d(358, eps=1e-05, momentum=0.1, affine=True, track_running_stats=True)\n      )\n    )\n    (1): BasicBlock(\n      (conv1): Conv2d(358, 358, kernel_size=(3, 3), stride=(1, 1), padding=(1, 1), bias=False)\n      (bn1): BatchNorm2d(358, eps=1e-05, momentum=0.1, affine=True, track_running_stats=True)\n      (relu): ReLU(inplace=True)\n      (conv2): Conv2d(358, 358, kernel_size=(3, 3), stride=(1, 1), padding=(1, 1), bias=False)\n      (bn2): BatchNorm2d(358, eps=1e-05, momentum=0.1, affine=True, track_running_stats=True)\n    )\n  )\n  (avgpool): AdaptiveAvgPool2d(output_size=(1, 1))\n  (fc): Linear(in_features=358, out_features=1000, bias=True)\n)\n\n\nThe Prunercan also remove filters based on global criteria (i.e. each layer will be trimmed of a different % of filters, but we specify the sparsity of the whole network)\n\nmodel = resnet18()\npruner = Pruner(model, 'global', large_final, layer_type=[nn.Conv2d])\npruner.prune_model(50)\nprint(model)\n\nResNet(\n  (conv1): Conv2d(3, 64, kernel_size=(7, 7), stride=(2, 2), padding=(3, 3), bias=False)\n  (bn1): BatchNorm2d(64, eps=1e-05, momentum=0.1, affine=True, track_running_stats=True)\n  (relu): ReLU(inplace=True)\n  (maxpool): MaxPool2d(kernel_size=3, stride=2, padding=1, dilation=1, ceil_mode=False)\n  (layer1): Sequential(\n    (0): BasicBlock(\n      (conv1): Conv2d(64, 64, kernel_size=(3, 3), stride=(1, 1), padding=(1, 1), bias=False)\n      (bn1): BatchNorm2d(64, eps=1e-05, momentum=0.1, affine=True, track_running_stats=True)\n      (relu): ReLU(inplace=True)\n      (conv2): Conv2d(64, 64, kernel_size=(3, 3), stride=(1, 1), padding=(1, 1), bias=False)\n      (bn2): BatchNorm2d(64, eps=1e-05, momentum=0.1, affine=True, track_running_stats=True)\n    )\n    (1): BasicBlock(\n      (conv1): Conv2d(64, 64, kernel_size=(3, 3), stride=(1, 1), padding=(1, 1), bias=False)\n      (bn1): BatchNorm2d(64, eps=1e-05, momentum=0.1, affine=True, track_running_stats=True)\n      (relu): ReLU(inplace=True)\n      (conv2): Conv2d(64, 64, kernel_size=(3, 3), stride=(1, 1), padding=(1, 1), bias=False)\n      (bn2): BatchNorm2d(64, eps=1e-05, momentum=0.1, affine=True, track_running_stats=True)\n    )\n  )\n  (layer2): Sequential(\n    (0): BasicBlock(\n      (conv1): Conv2d(64, 128, kernel_size=(3, 3), stride=(2, 2), padding=(1, 1), bias=False)\n      (bn1): BatchNorm2d(128, eps=1e-05, momentum=0.1, affine=True, track_running_stats=True)\n      (relu): ReLU(inplace=True)\n      (conv2): Conv2d(128, 128, kernel_size=(3, 3), stride=(1, 1), padding=(1, 1), bias=False)\n      (bn2): BatchNorm2d(128, eps=1e-05, momentum=0.1, affine=True, track_running_stats=True)\n      (downsample): Sequential(\n        (0): Conv2d(64, 128, kernel_size=(1, 1), stride=(2, 2), bias=False)\n        (1): BatchNorm2d(128, eps=1e-05, momentum=0.1, affine=True, track_running_stats=True)\n      )\n    )\n    (1): BasicBlock(\n      (conv1): Conv2d(128, 128, kernel_size=(3, 3), stride=(1, 1), padding=(1, 1), bias=False)\n      (bn1): BatchNorm2d(128, eps=1e-05, momentum=0.1, affine=True, track_running_stats=True)\n      (relu): ReLU(inplace=True)\n      (conv2): Conv2d(128, 128, kernel_size=(3, 3), stride=(1, 1), padding=(1, 1), bias=False)\n      (bn2): BatchNorm2d(128, eps=1e-05, momentum=0.1, affine=True, track_running_stats=True)\n    )\n  )\n  (layer3): Sequential(\n    (0): BasicBlock(\n      (conv1): Conv2d(128, 64, kernel_size=(3, 3), stride=(2, 2), padding=(1, 1), bias=False)\n      (bn1): BatchNorm2d(64, eps=1e-05, momentum=0.1, affine=True, track_running_stats=True)\n      (relu): ReLU(inplace=True)\n      (conv2): Conv2d(64, 256, kernel_size=(3, 3), stride=(1, 1), padding=(1, 1), bias=False)\n      (bn2): BatchNorm2d(256, eps=1e-05, momentum=0.1, affine=True, track_running_stats=True)\n      (downsample): Sequential(\n        (0): Conv2d(128, 256, kernel_size=(1, 1), stride=(2, 2), bias=False)\n        (1): BatchNorm2d(256, eps=1e-05, momentum=0.1, affine=True, track_running_stats=True)\n      )\n    )\n    (1): BasicBlock(\n      (conv1): Conv2d(256, 42, kernel_size=(3, 3), stride=(1, 1), padding=(1, 1), bias=False)\n      (bn1): BatchNorm2d(42, eps=1e-05, momentum=0.1, affine=True, track_running_stats=True)\n      (relu): ReLU(inplace=True)\n      (conv2): Conv2d(42, 256, kernel_size=(3, 3), stride=(1, 1), padding=(1, 1), bias=False)\n      (bn2): BatchNorm2d(256, eps=1e-05, momentum=0.1, affine=True, track_running_stats=True)\n    )\n  )\n  (layer4): Sequential(\n    (0): BasicBlock(\n      (conv1): Conv2d(256, 1, kernel_size=(3, 3), stride=(2, 2), padding=(1, 1), bias=False)\n      (bn1): BatchNorm2d(1, eps=1e-05, momentum=0.1, affine=True, track_running_stats=True)\n      (relu): ReLU(inplace=True)\n      (conv2): Conv2d(1, 502, kernel_size=(3, 3), stride=(1, 1), padding=(1, 1), bias=False)\n      (bn2): BatchNorm2d(502, eps=1e-05, momentum=0.1, affine=True, track_running_stats=True)\n      (downsample): Sequential(\n        (0): Conv2d(256, 502, kernel_size=(1, 1), stride=(2, 2), bias=False)\n        (1): BatchNorm2d(502, eps=1e-05, momentum=0.1, affine=True, track_running_stats=True)\n      )\n    )\n    (1): BasicBlock(\n      (conv1): Conv2d(502, 1, kernel_size=(3, 3), stride=(1, 1), padding=(1, 1), bias=False)\n      (bn1): BatchNorm2d(1, eps=1e-05, momentum=0.1, affine=True, track_running_stats=True)\n      (relu): ReLU(inplace=True)\n      (conv2): Conv2d(1, 502, kernel_size=(3, 3), stride=(1, 1), padding=(1, 1), bias=False)\n      (bn2): BatchNorm2d(502, eps=1e-05, momentum=0.1, affine=True, track_running_stats=True)\n    )\n  )\n  (avgpool): AdaptiveAvgPool2d(output_size=(1, 1))\n  (fc): Linear(in_features=502, out_features=1000, bias=True)\n)",
    "crumbs": [
      "Contact Me",
      "Prune",
      "Pruner"
    ]
  },
  {
    "objectID": "tutorials/prune/yolov8.html#training",
    "href": "tutorials/prune/yolov8.html#training",
    "title": "YOLOV8",
    "section": "Training",
    "text": "Training\n\nclass Args(argparse.Namespace):\n  model = 'yolov8l.pt'\n  cfg = 'default.yaml'\n  i
…
arner(dls, resnet18(num_classes=2), metrics=accuracy)\nlearn.fit_one_cycle(5)\n\n\n\n\nepoch\ntrain_loss\nvalid_loss\naccuracy\ntime\n\n\n\n\n0\n0.615641\n0.596630\n0.688092\n00:10\n\n\n1\n0.582679\n0.558671\n0.689445\n00:10\n\n\n2\n0.529308\n0.517995\n0.744926\n00:10\n\n\n3\n0.481804\n0.449941\n0.784168\n00:10\n\n\n4\n0.400030\n0.414093\n0.800406\n00:10\n\n\n\n\n\n\nFold !\n\n\nbn = BN_Folder()\nnew_model = bn.fold(learn.model)\n\nThe batch norm layers have been replaced by an Identity layer, and the weights of the convolutions have been modified accordingly.\n\nnew_model\n\nResNet(\n  (conv1): Conv2d(3, 64, kernel_size=(7, 7), stride=(2, 2), padding=(3, 3))\n  (bn1): Identity()\n  (relu): ReLU(inplace=True)\n  (maxpool): MaxPool2d(kernel_size=3, stride=2, padding=1, dilation=1, ceil_mode=False)\n  (layer1): Sequential(\n    (0): BasicBlock(\n      (conv1): Conv2d(64, 64, kernel_size=(3, 3), stride=(1, 1), padding=(1, 1))\n      (bn1): Identity()\n      (relu): ReLU(inplace=True)\n      (conv2): Conv2d(64, 64, kernel_size=(3, 3), stride=(1, 1), padding=(1, 1))\n      (bn2): Identity()\n    )\n    (1): BasicBlock(\n      (conv1): Conv2d(64, 64, kernel_size=(3, 3), stride=(1, 1), padding=(1, 1))\n      (bn1): Identity()\n      (relu): ReLU(inplace=True)\n      (conv2): Conv2d(64, 64, kernel_size=(3, 3), stride=(1, 1), padding=(1, 1))\n      (bn2): Identity()\n    )\n  )\n  (layer2): Sequential(\n    (0): BasicBlock(\n      (conv1): Conv2d(64, 128, kernel_size=(3, 3), stride=(2, 2), padding=(1, 1))\n      (bn1): Identity()\n      (relu): ReLU(inplace=True)\n      (conv2): Conv2d(128, 128, kernel_size=(3, 3), stride=(1, 1), padding=(1, 1))\n      (bn2): Identity()\n      (downsample): Sequential(\n        (0): Conv2d(64, 128, kernel_size=(1, 1), stride=(2, 2))\n        (1): Identity()\n      )\n    )\n    (1): BasicBlock(\n      (conv1): Conv2d(128, 128, kernel_size=(3, 3), stride=(1, 1), padding=(1, 1))\n      (bn1): Identity()\n      (relu): ReLU(inplace=True)\n      (conv2): Conv2d(128, 128, kernel_size=(3, 3), stride=(1, 1), padding=(1, 1))\n      (bn2): Identity()\n    )\n  )\n  (layer3): Sequential(\n    (0): BasicBlock(\n      (conv1): Conv2d(128, 256, kernel_size=(3, 3), stride=(2, 2), padding=(1, 1))\n      (bn1): Identity()\n      (relu): ReLU(inplace=True)\n      (conv2): Conv2d(256, 256, kernel_size=(3, 3), stride=(1, 1), padding=(1, 1))\n      (bn2): Identity()\n      (downsample): Sequential(\n        (0): Conv2d(128, 256, kernel_size=(1, 1), stride=(2, 2))\n        (1): Identity()\n      )\n    )\n    (1): BasicBlock(\n      (conv1): Conv2d(256, 256, kernel_size=(3, 3), stride=(1, 1), padding=(1, 1))\n      (bn1): Identity()\n      (relu): ReLU(inplace=True)\n      (conv2): Conv2d(256, 256, kernel_size=(3, 3), stride=(1, 1), padding=(1, 1))\n      (bn2): Identity()\n    )\n  )\n  (layer4): Sequential(\n    (0): BasicBlock(\n      (conv1): Conv2d(256, 512, kernel_size=(3, 3), stride=(2, 2), padding=(1, 1))\n      (bn1): Identity()\n      (relu): ReLU(inplace=True)\n      (conv2): Conv2d(512, 512, kernel_size=(3, 3), stride=(1, 1), padding=(1, 1))\n      (bn2): Identity()\n      (downsample): Sequential(\n        (0): Conv2d(256, 512, kernel_size=(1, 1), stride=(2, 2))\n        (1): Identity()\n      )\n    )\n    (1): BasicBlock(\n      (conv1): Conv2d(512, 512, kernel_size=(3, 3), stride=(1, 1), padding=(1, 1))\n      (bn1): Identity()\n      (relu): ReLU(inplace=True)\n      (conv2): Conv2d(512, 512, kernel_size=(3, 3), stride=(1, 1), padding=(1, 1))\n      (bn2): Identity()\n    )\n  )\n  (avgpool): AdaptiveAvgPool2d(output_size=(1, 1))\n  (fc): Linear(in_features=512, out_features=2, bias=True)\n)\n\n\nWe can see that the new model possess fewer parameters\n\ncount_parameters(learn.model)\n\n11177538\n\n\n\ncount_parameters(new_model)\n\n11172738\n\n\nBut is also faster to run !\n\nx,y = dls.one_batch()\n\n\nlearn.model(x[0][None].cuda())\n\n5.59 ms ± 547 µs per loop (mean ± std. dev. of 7 runs, 100 loops each)\n\n\n\nnew_model(x[0][None].cuda())\n\n4.14 ms ± 446 µs per loop (mean ± std. dev. of 7 runs, 100 loops each)\n\n\nBut most importantly, has the exact same perfomance as before:\n\nnew_learn = Learner(dls, new_model, metrics=accuracy)\n\n\nnew_learn.validate()\n\n\n\n\n(#2) [0.4140927791595459,0.8004059791564941]",
…
ntity()\n      (conv2): QuantizedConv2d(512, 512, kernel_size=(3, 3), stride=(1, 1), scale=0.27562740445137024, zero_point=161, padding=(1, 1))\n    )\n  )\n  (global_pool): Module(\n    (pool): AdaptiveAvgPool2d(output_size=1)\n    (flatten): Flatten(start_dim=1, end_dim=-1)\n  )\n  (fc): QuantizedLinear(in_features=512, out_features=1000, scale=0.6697565913200378, zero_point=104, qscheme=torch.per_channel_affine)\n)\n\n\n\nx, _ = dls.valid.one_batch()\nmodel_prepared = prepare_fx(model.eval(), qconfig_mapping, x)\n\n\nconvert_fx(model_prepared)\n\nGraphModule(\n  (conv1): ConvReLU2d(\n    (0): Conv2d(3, 64, kernel_size=(7, 7), stride=(2, 2), padding=(3, 3))\n    (1): ReLU(inplace=True)\n  )\n  (maxpool): MaxPool2d(kernel_size=3, stride=2, padding=1, dilation=1, ceil_mode=False)\n  (layer1): Module(\n    (0): Module(\n      (conv1): Conv2d(64, 64, kernel_size=(3, 3), stride=(1, 1), padding=(1, 1))\n      (drop_block): Identity()\n      (act1): ReLU(inplace=True)\n      (aa): Identity()\n      (conv2): Conv2d(64, 64, kernel_size=(3, 3), stride=(1, 1), padding=(1, 1))\n      (act2): ReLU(inplace=True)\n    )\n    (1): Module(\n      (conv1): Conv2d(64, 64, kernel_size=(3, 3), stride=(1, 1), padding=(1, 1))\n      (drop_block): Identity()\n      (act1): ReLU(inplace=True)\n      (aa): Identity()\n      (conv2): Conv2d(64, 64, kernel_size=(3, 3), stride=(1, 1), padding=(1, 1))\n      (act2): ReLU(inplace=True)\n    )\n    (2): Module(\n      (conv1): Conv2d(64, 64, kernel_size=(3, 3), stride=(1, 1), padding=(1, 1))\n      (drop_block): Identity()\n      (act1): ReLU(inplace=True)\n      (aa): Identity()\n      (conv2): Conv2d(64, 64, kernel_size=(3, 3), stride=(1, 1), padding=(1, 1))\n      (act2): ReLU(inplace=True)\n    )\n  )\n  (layer2): Module(\n    (0): Module(\n      (conv1): Conv2d(64, 128, kernel_size=(3, 3), stride=(2, 2), padding=(1, 1))\n      (drop_block): Identity()\n      (act1): ReLU(inplace=True)\n      (aa): Identity()\n      (conv2): Conv2d(128, 128, kernel_size=(3, 3), stride=(1, 1), padding=(1, 1))\n      (downsample): Module(\n        (0): Conv2d(64, 128, kernel_size=(1, 1), stride=(2, 2))\n      )\n      (act2): ReLU(inplace=True)\n    )\n    (1): Module(\n      (conv1): Conv2d(128, 128, kernel_size=(3, 3), stride=(1, 1), padding=(1, 1))\n      (drop_block): Identity()\n      (act1): ReLU(inplace=True)\n      (aa): Identity()\n      (conv2): Conv2d(128, 128, kernel_size=(3, 3), stride=(1, 1), padding=(1, 1))\n      (act2): ReLU(inplace=True)\n    )\n    (2): Module(\n      (conv1): Conv2d(128, 128, kernel_size=(3, 3), stride=(1, 1), padding=(1, 1))\n      (drop_block): Identity()\n      (act1): ReLU(inplace=True)\n      (aa): Identity()\n      (conv2): Conv2d(128, 128, kernel_size=(3, 3), stride=(1, 1), padding=(1, 1))\n      (act2): ReLU(inplace=True)\n    )\n    (3): Module(\n      (conv1): Conv2d(128, 128, kernel_size=(3, 3), stride=(1, 1), padding=(1, 1))\n      (drop_block): Identity()\n      (act1): ReLU(inplace=True)\n      (aa): Identity()\n      (conv2): Conv2d(128, 128, kernel_size=(3, 3), stride=(1, 1), padding=(1, 1))\n      (act2): ReLU(inplace=True)\n    )\n  )\n  (layer3): Module(\n    (0): Module(\n      (conv1): Conv2d(128, 256, kernel_size=(3, 3), stride=(2, 2), padding=(1, 1))\n      (drop_block): Identity()\n      (act1): ReLU(inplace=True)\n      (aa): Identity()\n      (conv2): Conv2d(256, 256, kernel_size=(3, 3), stride=(1, 1), padding=(1, 1))\n      (downsample): Module(\n        (0): Conv2d(128, 256, kernel_size=(1, 1), stride=(2, 2))\n      )\n      (act2): ReLU(inplace=True)\n    )\n    (1): Module(\n      (conv1): Conv2d(256, 256, kernel_size=(3, 3), stride=(1, 1), padding=(1, 1))\n      (drop_block): Identity()\n      (act1): ReLU(inplace=True)\n      (aa): Identity()\n      (conv2): Conv2d(256, 256, kernel_size=(3, 3), stride=(1, 1), padding=(1, 1))\n      (act2): ReLU(inplace=True)\n    )\n    (2): Module(\n      (conv1): Conv2d(256, 256, kernel_size=(3, 3), stride=(1, 1), padding=(1, 1))\n      (drop_block): Identity()\n      (act1): ReLU(inplace=True)\n      (aa): Identity()\n      (conv2): Conv2d(256, 256, kernel_size=(3, 3), stride=(1, 1), padding=(1, 1))\n      (act2): ReLU(inplace=True)\n    )\n    (3): Module(\n      (conv1): Conv2d(256, 256, kernel_size=(3, 3), stride=(1, 1), padding=(1, 1))\n      (drop_block): Identity()\n      (act1): ReLU(inplace=True)\n      (aa): Identity()\n      (conv2): Conv2d(256, 256, kernel_size=(3, 3), stride=(1, 1), padding=(1, 1))\n      (act2): ReLU(inplace=True)\n    )\n    (4): Module(\n      (conv1): Conv2d(256, 256, kernel_size=(3, 3), stride=(1, 1), padding=(1, 1))\n      (drop_block): Identity()\n      (act1): ReLU(inplace=True)\n      (aa): Identity()\n      (conv2): Conv2d(256, 256, kernel_size=(3, 3), stride=(1, 1), padding=(1, 1))\n      (act2): ReLU(inplace=True)\n    )\n    (5): Module(\n      (conv1): Conv2d(256, 256, kernel_size=(3, 3), stride=(1, 1), padding=(1, 1))\n      (drop_block): Identity()\n      (act1): ReLU(inplace=True)\n      (aa): Identity()\n      (conv2): Conv2d(256, 256, kernel_size=(3, 3), stride=(1, 1), padding=(1, 1))\n      (act2): ReLU(inplace=True)\n    )\n  )\n  (layer4): Module(\n    (0): Module(\n      (conv1): Conv2d(256, 512, kernel_size=(3, 3), stride=(2, 2), padding=(1, 1))\n      (drop_block): Identity()\n      (act1): ReLU(inplace=True)\n      (aa): Identity()\n      (conv2): Conv2d(512, 512, kernel_size=(3, 3), stride=(1, 1), padding=(1, 1))\n      (downsample): Module(\n        (0): Conv2d(256, 512, kernel_size=(1, 1), stride=(2, 2))\n      )\n      (act2): ReLU(inplace=True)\n    )\n    (1): Module(\n      (conv1): Conv2d(512, 512, kernel_size=(3, 3), stride=(1, 1), padding=(1, 1))\n      (drop_block): Identity()\n      (act1): ReLU(inplace=True)\n      (aa): Identity()\n      (conv2): Conv2d(512, 512, kernel_size=(3, 3), stride=(1, 1), padding=(1, 1))\n      (act2): ReLU(inplace=True)\n    )\n    (2): Module(\n      (conv1): Conv2d(512, 512, kernel_size=(3, 3), stride=(1, 1), padding=(1, 1))\n      (drop_block): Identity()\n      (act1): ReLU(inplace=True)\n      (aa): Identity()\n      (conv2): Conv2d(512, 512, kernel_size=(3, 3), stride=(1, 1), padding=(1, 1))\n      (act2): ReLU(inplace=True)\n    )\n  )\n  (global_pool): Module(\n    (pool): AdaptiveAvgPool2d(output_size=1)\n    (flatten): Flatten(start_dim=1, end_dim=-1)\n  )\n  (fc): Linear(in_features=512, out_features=1000, bias=True)\n)\n\n\n\nimport torch.quantization as quant\n\n\nclass Quantizer:\n    def __init__(self, activation_observer=MinMaxObserver, \n                 weight_observer=PerChannelMinMaxObserver,\n                 activation_qtype=torch.quint8, weight_qtype=torch.qint8,\n                 granularity='channel'):\n        self.activation_observer = activation_o
…
